SOSE_24/AISP/PoisoningLLM/extract_target_mnist_4_dc30_mnist.pt (torch, 221662 bytes, 24 tensors)

conv_1.weight f4 [4, 1, 5, 5]
000000 bf 0c 56 3f e6 7d 34 be b3 ae 6a bf 1d 7b 16 bf
       0.836132 -0.17626151 -0.9167282 -0.58781606
000010 db e7 94 3f fe 6c 85 bf cb e8 aa be cd 3e 49 3d
       1.1633257 -1.0423887 -0.33380732 0.049132157
000020 69 6a 83 be cf 44 72 3f cb 95 05 bf 49 5f e2 be
       -0.25667122 0.94636244 -0.5218169 -0.44213322
000030 81 55 38 bf 08 bd 35 bf 52 cc a7 3f 7c 90 1d 3f
       -0.7200547 -0.70991564 1.3109229 0.6154859
000040 9f 4b 11 bf 65 f3 92 bf 79 92 96 bf 9b 65 45 bf
       -0.56756014 -1.1480528 -1.176345 -0.7710816
000050 34 43 f1 3e b7 77 06 3f a3 bd 51 bc 28 b9 18 bf
       0.47121584 0.5252642 -0.012801561 -0.59657526
000060 a3 6e be be 21 a8 8f 3e 08 59 9c 3e 03 85 94 be
       -0.37193784 0.2805796 0.30536675 -0.2900773
000070 49 2d 34 bf c2 8f 96 be a7 28 91 be 70 d8 f3 3d
       -0.703816 -0.29406554 -0.28351328 0.119065166
000080 e6 ce dc 3e cd 9f 47 3d 2d 1e 06 3f ab 82 ee 3e
       0.431266 0.048736382 0.52389795 0.46584067
000090 8f c4 e0 3e 82 c4 65 3f 15 21 7e 3f b5 57 a3 3e
       0.43899962 0.8975297 0.9926923 0.31902853
0000a0 bd 44 02 bf cb 1c 6a bf 92 1d 0d 3e 99 e2 71 3f
       -0.50886136 -0.91450185 0.13780811 0.94486386
0000b0 40 34 78 bf 51 ad cd bd 20 85 72 bf 2d 9c ee bf
       -0.9695473 -0.10042823 -0.9473438 -1.8641411
0000c0 60 51 f6 bf d8 88 de be 36 a3 44 be 46 1b 86 3e
       -1.9243584 -0.43463778 -0.19202885 0.26192683
0000d0 a2 97 66 3e 26 37 18 be 5a ef ed bc ab 9a 00 bf
       0.22518781 -0.14864787 -0.029044796 -0.50236005
0000e0 33 c7 80 be 99 e6 01 3f ea f6 e8 3e af 98 fe bd
       -0.25151977 0.5074249 0.4550088 -0.12431466
0000f0 67 89 25 bf b2 1e fc 3e 06 0b 0e 3f b7 92 05 3f
       -0.64662784 0.4924217 0.5548557 0.52176994
000100 7e 34 5a bf 33 af 94 be 96 bf 88 3f 88 82 0b 3f
       -0.85236347 -0.29039916 1.0683467 0.5449605
000110 2c 07 3e 3f 0a 77 fd bf 4d bc 39 3e 3c 04 bc 3a
       0.74229693 -1.9801953 0.18138237 0.0014344524
000120 7a 8e ff be 07 8c 19 bf 31 ef d2 bf 25 73 43 3e
       -0.49913388 -0.5997929 -1.6479245 0.19086893
000130 fd 72 1c 3f 79 e3 31 bf 8e b9 50 bf 79 b0 4c bf
       0.6111296 -0.6948772 -0.81533134 -0.79956776
000140 8e 23 84 be 1e 5a cb 3e 86 9e 15 3f 4d e8 30 3e
       -0.25808376 0.3971719 0.5844501 0.17276116
000150 93 1f 49 3e 1a 35 2d bf 6a 4f 5a 3f 5f 25 63 3e
       0.19640951 -0.6765915 0.85277426 0.22182225
000160 bb 3d 04 3e dc ed 33 3d c8 2d a1 3b 34 b3 05 3f
       0.12914173 0.043928012 0.0049187876 0.5222657
000170 09 19 78 be db 20 64 bc fc 32 ab bd 7a 93 3c be
       -0.242283 -0.013923849 -0.08359334 -0.18415633
000180 1a 07 13 3f fd 5c b5 be be d9 a4 3e 30 7a f3 3e
       0.5743271 -0.35422507 0.32197374 0.4755416

conv_1.bias f4 [4]
000000 32 1d 2d c0 63 0f fc bf 0b 71 31 c0 a0 91 48 c0
       -2.704907 -1.9692196 -2.7725246 -3.1338882

conv_2.weight f4 [10, 4, 5, 5]
000000 89 76 3c 3f 1a 2c b3 3e 11 b2 02 bf 8d 46 64 c0
       0.7361837 0.34994584 -0.5105296 -3.566806
000010 a0 3c 77 bf 2c e5 2b bf fc 96 9d bf 39 8c b1 3e
       -0.9657688 -0.67146564 -1.2311702 0.34677294
000020 91 e6 3e 3f ae 72 38 40 03 a2 d0 be bb bf 04 3f
       0.74570566 2.8819995 -0.40748605 0.5185506
000030 d2 24 d9 3f 0d 21 3b 40 67 6c 0c 3f 06 70 b4 bf
       1.6964362 2.9238923 0.5485291 -1.4096687
000040 b6 fb 5e 3e 70 d8 95 bf 1b dd 66 c0 54 6c 63 c0
       0.21775708 -1.1706676 -3.6072452 -3.5534868
000050 29 76 ec be 6b d0 c0 bf 41 ac c1 bf 16 3d ad bd
       -0.461839 -1.5063604 -1.5130693 -0.08458917
000060 d9 8a 4c 3f 0f 1f 77 bf 17 29 c8 be 43 f3 43 3f
       0.79899365 -0.96531767 -0.3909385 0.7654306
000070 9c 00 2b bf ab ab ee bf 1d d0 0e 3f 86 89 41 bf
       -0.66797805 -1.8646139 0.55786306 -0.7560047
000080 79 3a 12 be 56 f0 2f 3f fd 8d 4a 3f 68 32 ac 3e
       -0.14280118 0.687261 0.79122907 0.33632207
000090 cb 76 2c 3e 2b da 17 3f fd c6 a1 3f 92 6e d0 be
       0.16842191 0.5931727 1.2638851 -0.40709358
0000a0 bd ea 62 bf 22 65 79 3e fb 69 72 be 39 39 84 bf
       -0.8863943 0.24354985 -0.23673241 -1.0329963
0000b0 2e ec 23 3f 9c 67 33 bf 5c 70 b9 3e f9 68 cb 3e
       0.64032257 -0.7007997 0.36218536 0.39728525
0000c0 d0 83 91 3e 05 1a 14 3f b5 4f b4 bf 99 34 2d be
       0.28420877 0.578522 -1.4086825 -0.16914596
0000d0 e8 ee 3e 3f 03 d5 8a bf bf 81 23 3e be 3f f0 3e
       0.7458329 -1.0846256 0.15967463 0.4692363
0000e0 b5 aa 43 bf 09 7a 3c c0 72 ae 19 bf 5c 1d 53 be
       -0.76432353 -2.9449484 -0.6003181 -0.20616668
0000f0 d6 42 fd bf a8 76 82 bf aa 53 71 bf 78 b1 16 bf
       -1.9786022 -1.0192461 -0.94268286 -0.58864546
000100 22 81 0b c0 ec 99 c2 bf ee c5 2e c0 17 4f bc bf
       -2.1797566 -1.5203223 -2.7308307 -1.4711636
000110 d9 0e ae bf 51 23 2d be 0a 0d bd bf f1 30 5c bf
       -1.3598281 -0.16908003 -1.4769604 -0.8601218
000120 78 fc cd be c8 5b a0 3e 6d 04 cb bd ad 0e c3 3e
       -0.4023168 0.31320024 -0.099129535 0.38097134
000130 62 1c e3 3d 8a 04 a7 be af a8 30 be b5 f4 6f bf
       0.11089398 -0.3262065 -0.17251848 -0.9373277
000140 3c a9 7d be 4e 3d 89 bf ba 94 dd bf d5 72 ff 3e
       -0.24771589 -1.0721834 -1.7311013 0.49892297
000150 28 2d 09 3f 0d 4b 7c be 37 e6 2e bf 0f 2b 83 bf
       0.5358453 -0.24638005 -0.6832003 -1.0247515
000160 c1 8d bb bf 90 1e 41 bc b8 15 11 c0 8a 9f 41 bf
       -1.4652635 -0.011787072 -2.2669506 -0.7563406
000170 f9 bb ba be a4 c2 2d be cb 59 aa bd de be 3a bf
       -0.36471537 -0.16968781 -0.08317908 -0.7294749
000180 82 0a b5 3d 2f 50 bd 3f 2f 92 92 3f 5e 72 09 bf
       0.08839895 1.4790095 1.1450862 -0.53690135
000190 d5 85 e1 be 60 99 57 bd 52 b6 73 bf 3c 69 95 be
       -0.44047418 -0.052636504 -0.95200074 -0.2918185
0001a0 7c c8 ad be a8 01 1c 3f 19 ec 5e 3f a5 e9 20 bf
       -0.3394202 0.6094003 0.87079006 -0.62856513
0001b0 ec 4c 84 3f ad 0b 87 bf 67 cc f8 bf 7b 75 67 be
       1.0335975 -1.0550438 -1.9437379 -0.22603409
0001c0 51 10 6f 3f 51 09 06 40 68 c8 a7 3e c4 5d 30 bf
       0.9338427 2.0943186 0.32770085 -0.68893075
0001d0 68 ef 5f bf 78 a4 ca be e5 a1 34 3f 98 ab 4c bf
       -0.8747468 -0.39578605 0.7055953 -0.7994933
0001e0 0b 19 55 bf ab 59 83 3e 18 af 15 bf 7a 91 bb bf
       -0.8324134 0.2565435 -0.58470297 -1.4653771
0001f0 db ce bf bf be 0a 6a be d8 f7 65 be b8 b0 f5 3e
       -1.4985002 -0.2285566 -0.22457826 0.47986388
000200 39 6f 14 3e 9b 69 3c 3e a4 ed 80 3f 2a 26 57 bf
       0.14495553 0.1839966 1.0072522 -0.8404261
000210 90 4b 37 bf cd 2f 1e 3d 98 4c 9d bf 83 77 9c bf
       -0.71599674 0.038619805 -1.2289 -1.2223972
000220 1c 68 62 c0 10 15 00 c0 e7 fc 67 bf ca ea 70 be
       -3.5376043 -2.0012856 -0.90620273 -0.23527065
000230 da a1 4b 3f 65 fe 53 3f d4 b0 50 3e f4 f8 67 3f
       0.7954384 0.8281005 0.20379955 0.9061425
000240 55 8d a2 bf 1c 86 d1 3e 2d bd a8 3f 14 46 8a 3f
       -1.2699381 0.4092263 1.3182732 1.0802636
000250 d8 3b 9d bd 07 1a 41 bf 92 6b 13 3f b1 75 1d 3e
       -0.0767743 -0.7543034 0.57586014 0.15376927
000260 ba bf 41 3e d1 ad 97 bf 12 44 d6 bf f8 c2 ae be
       0.18920794 -1.184992 -1.6739523 -0.34133124
000270 19 7d 10 c0 49 a4 d7 bf 21 db dd bf 8c 71 13 bf
       -2.2576354 -1.6847011 -1.7332498 -0.57595134
000280 df 0d e2 be 47 86 32 bf 7d 3e 57 3e 5f 95 1b 3f
       -0.44151208 -0.6973614 0.21019931 0.607748
000290 cd 75 16 3e 1a 23 c0 3d 72 7f a7 3e 02 b8 09 3f
       0.14693375 0.09381695 0.3271442 0.537964
0002a0 e0 c8 34 3f 29 17 83 3c be 48 2a bf fa 8f 1d 3e
       0.7061901 0.016002255 -0.66517246 0.15386954
0002b0 09 79 1e 3d b7 03 82 bf b0 68 44 bf 99 f5 60 be
       0.038689647 -1.0157384 -0.7672224 -0.21968688
0002c0 13 09 0c bf 84 0f 81 bc 09 22 d3 be 7b 21 d0 be
       -0.54701346 -0.015754469 -0.41236904 -0.40650544
0002d0 70 1d 7c be 25 5d 89 bf fc b1 e7 bf f2 92 91 bf
       -0.24620605 -1.073155 -1.8101192 -1.1372969
0002e0 c9 20 69 bf a7 5d a0 be 9b d4 2c c0 8d 7e d5 bf
       -0.9106565 -0.3132145 -2.7004764 -1.6679245
0002f0 dd 39 50 bf 3f 39 2c 3f ae c8 25 3f 62 a2 c3 3e
       -0.8133829 0.6727485 0.6475934 0.38209826
000300 7e 19 96 be 24 e7 7b bd 27 4f 20 bf 92 5d 94 3e
       -0.29316324 -0.06149973 -0.62620777 0.28977638
000310 a2 38 fe bd 4e 29 86 3e 9c 38 2c 3d af d9 ca 3d
       -0.124131456 0.26203388 0.042046174 0.09904801
000320 2e d7 3d 3f 1b 4c 88 bf 55 d2 a4 bf ae e9 81 3e
       0.74156463 -1.0648226 -1.2876688 0.25373596
000330 78 e9 24 3f 86 29 09 bf 36 bc 09 3f f0 47 bc 3d
       0.64418745 -0.53578985 0.5380281 0.091934085
000340 b7 b5 29 bf a6 b6 45 3e 2b 67 5e bf 36 b3 02 bf
       -0.662929 0.19307956 -0.8687617 -0.51054704
000350 da 40 78 bf b5 b5 10 3e 9f 9b cd be ee c8 97 be
       -0.96973956 0.14131816 -0.40157792 -0.29645485
000360 31 e9 c7 3f b3 20 bd bf e2 62 4b 3f f1 6a 89 be
       1.5618039 -1.4775604 0.7944776 -0.26839402
000370 a3 23 b6 3e 2d 13 84 3f 3f dc 32 bf 83 ad a0 bf
       0.35574064 1.0318352 -0.6986732 -1.2552952
000380 06 6f ac bf 1b f3 8b 3e 77 34 44 bf c3 57 4b bf
       -1.3471382 0.27333912 -0.76642555 -0.7943079
000390 61 fb f3 be e2 db 64 be 99 ec dc bf 26 19 20 c0
       -0.47652724 -0.22349504 -1.7259704 -2.501535
0003a0 06 7a f7 bd c3 29 22 bf f3 74 ce be 9f c7 d3 be
       -0.12083821 -0.63344973 -0.403236 -0.41363236
0003b0 2b 52 0a c0 d3 d6 0b c0 5b 09 aa 3e f6 22 4b bf
       -2.1612651 -2.1849868 0.33210263 -0.7935022
0003c0 6a 5a d0 bd 03 bc 15 be 2c 34 6f bf 00 a5 86 bf
       -0.10173495 -0.14622502 -0.9343898 -1.0519104
0003d0 b1 55 18 3f 8c 68 42 bf 4d cd 06 3f e6 df 24 3f
       0.59505755 -0.75940776 0.52657014 0.6440414
0003e0 0f ef 3d 3f b6 4c af 3f 51 3e c3 be 5c 05 95 3d
       0.741929 1.3695285 -0.3813348 0.07276413
0003f0 f1 9d 14 3f cf 50 2d 3f 52 4c 35 bf ae 71 55 3f
       0.580535 0.6770143 -0.7081958 0.83376586

conv_2.bias f4 [10]
000000 0e 23 d4 bf 0a e3 02 c0 81 03 bc bf cc 9c b3 be
       -1.6573198 -2.0451074 -1.4688569 -0.35080564
000010 f7 b2 dc bd c4 dc 02 3f 68 db 21 40 93 62 b3 bf
       -0.10776322 0.5111811 2.5290165 -1.4014457
000020 f2 da 08 bf b9 7f fa be
       -0.53459084 -0.4892557

fc_1.weight f4 [100, 160]
000000 7c 60 ec bd 1d fb da be d7 43 94 bd 1d d3 31 3e
       -0.115418404 -0.4276971 -0.07239502 0.1736569
000010 cd af b8 bd 14 a1 a2 bd 0a b4 ef ba f6 4c 61 3e
       -0.09017906 -0.079408795 -0.0018287909 0.22002015
000020 2b d9 71 bf 41 ad 50 be 24 f6 a2 be 11 72 e9 3e
       -0.94472 -0.20378591 -0.31828415 0.45594838
000030 10 6f e0 be 4b fa a5 3e 59 40 ce 3d 46 69 9b be
       -0.43834734 0.3241752 0.10070867 -0.30353755
000040 20 53 92 3e c7 63 ed 3d 09 66 3d be 7d 52 09 3d
       0.28579044 0.11591297 -0.18495955 0.033525933
000050 c5 af 32 bc 82 44 1a be a7 81 d9 3e c7 e9 d2 3e
       -0.010906165 -0.15065196 0.4248173 0.41193983
000060 d5 47 09 bf 3d df 06 be b2 16 25 be c8 6a 71 be
       -0.5362523 -0.13171096 -0.16121939 -0.2357589
000070 c5 21 ac be dc 25 b2 bd b6 3c d9 be d0 f3 e9 bd
       -0.33619514 -0.08698627 -0.4242913 -0.11423457
000080 bb 8b 14 be c5 d2 e2 be e1 02 51 be 15 c3 6b be
       -0.14506428 -0.4430143 -0.20411254 -0.23023637
000090 a7 d7 81 bf b0 76 61 3d 65 17 8e 3e ef da b6 be
       -1.0143937 0.05504483 0.27752224 -0.35713908
0000a0 e2 ac c2 be ce bb bd be be 83 a6 be c3 a5 80 be
       -0.38022524 -0.37057346 -0.32522386 -0.25126466
0000b0 58 79 a4 bd c2 af 99 be 16 5a 9f be 55 98 db be
       -0.08030957 -0.30016905 -0.31123418 -0.42889658
0000c0 d9 e7 90 be 8b 39 85 3d 79 e0 aa 3e 76 09 88 bd
       -0.28301886 0.06505116 0.33374384 -0.066424295
0000d0 ac c0 85 bd 56 75 dc be d2 81 40 3f c4 96 1c bd
       -0.0653089 -0.4305827 0.7519809 -0.03822972
0000e0 b2 d3 d7 be a8 a9 85 3a 59 42 d3 3e 0a a1 c9 3d
       -0.42153698 0.0010197656 0.41261557 0.09845169
0000f0 45 72 69 bd 77 19 10 bf 04 53 d6 be 18 f9 28 bf
       -0.05699374 -0.56288856 -0.4186021 -0.66005087
000100 ce 41 7e be a4 0d f1 bd 1a 80 c5 be 50 5f b6 3c
       -0.2482979 -0.1177018 -0.38574296 0.022262245
000110 1a 87 ef be 47 1e d6 be 2d d3 a3 be bf 61 68 3d
       -0.46782762 -0.41819975 -0.31997052 0.056733843
000120 c1 19 0b be 67 73 5f bf c4 e4 72 be 9f 7a 29 bf
       -0.13584043 -0.87285465 -0.2372008 -0.6620273
000130 91 4c 24 3d c5 3e 91 3e 0a ea 26 be 2f 8e 06 bf
       0.040112082 0.28368202 -0.16300216 -0.52560705
000140 34 49 38 bf c0 a6 c2 be 2f 5a 02 bf 66 13 37 be
       -0.719867 -0.38017845 -0.5091886 -0.17878494
000150 9f 6e 39 bf 41 12 3c bf 04 89 2b bf 32 21 bb bc
       -0.7243442 -0.73465353 -0.67005944 -0.022842977
000160 aa 87 f9 bd 4f a2 26 be 55 5f be bd 7c f4 ee 3c
       -0.12184079 -0.16272853 -0.09295527 0.029169314
000170 83 49 0c bf 0d a1 84 be cf b6 5e be 9d b2 6f be
       -0.5479967 -0.25904122 -0.21749423 -0.2340798
000180 8c c1 43 bf d6 d0 fc be 3b 6d 47 3e 20 75 97 be
       -0.76467204 -0.4937808 0.19475262 -0.29581547
000190 92 8f bd 3b dc a8 c0 3e 56 34 83 3e 2b 0a 17 bc
       0.005784937 0.3762883 0.25625867 -0.009218733
0001a0 c3 88 37 3d f5 04 e0 be c6 1e f2 be 47 45 76 3d
       0.04480816 -0.43753782 -0.47289103 0.06012466
0001b0 19 38 59 bf a2 58 1b bf a0 63 b6 be da d9 45 be
       -0.84851223 -0.6068212 -0.35622883 -0.19321385
0001c0 bb 56 ea be ae 74 33 bf 77 db a8 bd c0 30 13 bf
       -0.45769295 -0.70099914 -0.082449846 -0.5749626
0001d0 2f 28 c5 be 46 7d e4 bd e4 ac b8 be fd 17 6b be
       -0.3850722 -0.111567065 -0.36069405 -0.2295837
0001e0 79 96 68 bf 30 8f 31 be 29 3e c7 bd 68 6c 15 be
       -0.90854603 -0.17339778 -0.09728653 -0.14592135
0001f0 f6 90 46 3f f3 af df 3e bc ff e6 be b0 2f d4 bd
       0.7756494 0.43688926 -0.45116985 -0.10360658
000200 f0 2e 1b bf c3 a2 10 bf 79 cd cf be 72 0a 4a bf
       -0.60618496 -0.56498355 -0.4058645 -0.7892219
000210 7e 40 6d bf 8a 8e a6 be 91 87 b7 be 4c 70 94 bf
       -0.9267653 -0.32530624 -0.35845616 -1.159677
000220 d7 bd 3c bf b4 77 c6 be e7 95 ab 3d 91 85 38 3e
       -0.7372717 -0.387632 0.08378201 0.18019702
000230 21 cb 01 be c7 48 05 3e b6 de 07 3f 90 49 17 bc
       -0.12675144 0.13016044 0.53074205 -0.009233847
000240 26 54 20 bf 55 a1 3e be 2b ab de be f9 bd 3b bf
       -0.626284 -0.18616231 -0.43489966 -0.7333675
000250 de 5c 2a be b4 f5 26 bf 64 a7 65 be 5c fc 39 3f
       -0.16636989 -0.65218663 -0.22427136 0.72650695
000260 39 96 62 3d 27 d6 0a be b3 41 a0 be be 89 73 3e
       0.055319045 -0.13558255 -0.31300125 0.23783013
000270 c4 11 82 3d 72 0d e5 be 63 0c 45 bf 47 49 83 be
       0.06351045 -0.4473682 -0.76972026 -0.25641844
000280 b1 79 81 be ed 50 a2 3e 3b ae 3c bf 76 3e 50 3d
       -0.25288156 0.31702366 -0.73703355 0.050840817
000290 98 d4 29 3f 4a 71 0e be 34 8b 9c 3e 3c 03 af be
       0.6634002 -0.13910404 0.30574954 -0.34182155
0002a0 99 98 77 3e ad c9 f3 be ea 02 e1 bb 5a 43 3a 3d
       0.24179305 -0.47614804 -0.0068668025 0.045474388
0002b0 c9 aa ac bf 0e bc 19 bf 09 f8 06 3f d6 20 dc 3e
       -1.348962 -0.60052574 0.5272222 0.42993802
0002c0 9e ae ae be b0 15 1a bf 1f de 80 3f 14 a2 c1 3e
       -0.34117597 -0.6018934 1.0067786 0.37818968
0002d0 ac 1e c1 bd aa a4 4c 3e a4 f6 42 bf b8 0b 96 be
       -0.09429678 0.1998469 -0.76157594 -0.29305816
0002e0 0d bd 70 bc 51 0b ea be d4 3d 0a 3c d1 3d ab be
       -0.014693511 -0.4571176 0.008437593 -0.334456
0002f0 5f b9 a1 be 0a 33 ce be 8b 12 16 3d 72 67 01 be
       -0.3158674 -0.40273315 0.036638778 -0.12637118
000300 29 98 32 bb 90 d0 cc 3e ff 24 13 bf 6e 9d 0b bf
       -0.002725134 0.4000287 -0.57478327 -0.54537094
000310 63 78 e7 3d 39 5e 43 bf 93 10 04 bf 32 49 62 bd
       0.11302259 -0.7631565 -0.5158779 -0.055245586
000320 67 cd 6b bf fe ad 3b bf db af 5a be 76 55 01 bf
       -0.92110294 -0.73312366 -0.21356146 -0.5052103
000330 82 d5 81 bf 8d cb d1 be c7 24 11 bf 73 ad 1d bf
       -1.0143282 -0.4097561 -0.5669674 -0.6159279
000340 0e 4a 3e 3e 4e 82 26 bd 7f ac 95 3f e3 ca 7a bf
       0.18582937 -0.040651612 1.1693267 -0.9796583
000350 64 df 94 bd 26 8d 59 3d a0 04 70 3e d3 b4 dd be
       -0.07269171 0.053113125 0.23439264 -0.4330202
000360 9f ec 68 bf c3 05 80 3d 86 57 8b bf 14 02 91 bf
       -0.90986055 0.06251099 -1.0886085 -1.1328759
000370 4b 50 07 bf 8f fa d4 3e f3 9f 6f bf 61 69 0a bf
       -0.5285689 0.4159741 -0.9360344 -0.54067045
000380 92 eb 03 be e4 b1 29 be 69 df 56 3b 5c f7 1c bf
       -0.12882832 -0.16571766 0.0032786971 -0.6131494
000390 54 07 5e bf 4c 91 95 bd 81 48 b7 3e be 83 b7 bc
       -0.8672993 -0.07303104 0.35797504 -0.022401687
0003a0 03 af 96 be 52 2d 8f 3d 01 59 6f 3c 6f 0b 1f 3e
       -0.29430398 0.06991066 0.0146086225 0.15531705
0003b0 37 60 0e bf 5f 37 21 3e c6 bb a2 3e 07 47 42 bf
       -0.5561556 0.15743779 0.31783885 -0.7588963
0003c0 27 26 32 bf 5e 67 20 3e 22 04 35 3f 71 15 d1 3f
       -0.69589466 0.15664431 0.7070943 1.6334668
0003d0 a7 ca 26 3f db 11 15 be dc 01 a3 be d8 c9 cd bd
       0.6515297 -0.14557593 -0.31837356 -0.10048264
0003e0 8a cf d9 3e 00 e6 be be 7a 0e 3b bf ad c0 14 3f
       0.42541152 -0.3728485 -0.73068964 0.581065
0003f0 0f ea 0b 3f 79 5d 48 bd 4a 7b cf 3d 43 d9 1f 3f
       0.5465402 -0.048917267 0.101309374 0.6244089

fc_1.bias f4 [100]
000000 12 53 be be 18 1f cf be 19 3f 5d 3f 4f fe 0f bf
       -0.37172753 -0.4045341 0.86424404 -0.5624742
000010 23 a4 9e bd da 60 90 bf 18 f7 04 be 7f 38 d2 bd
       -0.0774615 -1.1279557 -0.12984884 -0.10264682
000020 9b 10 bf be 2c 46 37 bf 49 aa 14 3b 14 2d 57 bf
       -0.37317356 -0.7159145 0.0022684506 -0.8405316
000030 8c b2 28 bf c7 02 1f bf ed ad 4f be b4 8b 6d bf
       -0.6589744 -0.6211361 -0.20281191 -0.92791295
000040 b2 df 34 be f9 97 16 bf be 36 57 bf 4c 30 c0 be
       -0.17663458 -0.5882564 -0.84067905 -0.37536848
000050 c4 7f 19 bf 5a 65 9e 3e 16 54 49 bf 8b 8e 0b be
       -0.5996058 0.309367 -0.7864393 -0.13628595
000060 6b bf 07 bf 7f c6 29 bf 32 f4 ae be ee 85 88 bd
       -0.53026456 -0.66318506 -0.3417068 -0.0666617
000070 1c 0a a3 bf bd c8 01 bf ff 8c 88 bf 36 51 31 bf
       -1.273746 -0.5069693 -1.0668029 -0.69264543
000080 54 c2 a5 be 92 ed 6d bf af fb 10 bf 60 31 8c 3e
       -0.32374823 -0.9294063 -0.5663404 0.2738142
000090 7f b6 78 bf 39 a4 9c bf b4 17 04 be 2e 15 46 3e
       -0.97153467 -1.2237617 -0.12899667 0.19344017
0000a0 c1 d8 d5 bf f0 c7 55 bd 98 d0 7a bd 23 8c 9f bd
       -1.6706773 -0.05219263 -0.061234087 -0.07790401
0000b0 90 7b 2f bf bf 69 19 bd e6 a4 8e 3c 7c db 7d bf
       -0.68547916 -0.037454363 0.017412614 -0.9916303
0000c0 70 ac d7 bd 6b 25 98 be b9 6e da bd 3c 56 b3 bf
       -0.10530937 -0.29716048 -0.1066565 -1.4010692
0000d0 60 2f a4 be eb 56 88 bd 5b 23 78 bf cf 44 a2 be
       -0.32067394 -0.06657203 -0.9692895 -0.31693122
0000e0 96 cc 2a bd f6 a4 b5 bd e8 27 bf be 8b 26 b7 bd
       -0.041699015 -0.088693544 -0.37335134 -0.08942898
0000f0 4a 87 03 bd 31 53 cf be ba 0a b3 bd 32 7d 54 bf
       -0.032111444 -0.40493158 -0.0874228 -0.8300353
000100 76 da 16 bf aa 0d b5 bf d1 5a 97 bf 67 88 f7 bd
       -0.58927095 -1.4144795 -1.182459 -0.120865636
000110 90 e7 9e bf f0 00 00 bf f4 77 69 bf 93 31 d3 3b
       -1.2414417 -0.5000143 -0.9119866 0.0064451187
000120 28 16 d1 be be 60 61 be 94 de 4c bf 67 a0 cb be
       -0.40837216 -0.2200956 -0.8002713 -0.39770815
000130 18 b6 18 be 8c ff 8f be 6e 7c cb be d7 71 0e bd
       -0.14913213 -0.28124654 -0.3974337 -0.034776535
000140 b8 7c 21 bf d3 67 c0 bf 3a 5a f3 bd bb e8 b1 bd
       -0.6308093 -1.5031685 -0.11882444 -0.08686968
000150 16 7c 47 bf 66 8c 8a bf 35 a2 cc be 4e f6 2d bf
       -0.77923715 -1.0824096 -0.39967504 -0.67953956
000160 20 09 a9 bf 4f 51 cc bd 89 3f f2 3e fe 85 d2 bf
       -1.320591 -0.09976446 0.47314098 -1.6447141
000170 6e 5f fc be 95 19 62 be 32 dc e9 be 41 d0 74 bc
       -0.49291557 -0.22080071 -0.45675808 -0.01494223
000180 ff 43 89 bf 16 80 dc bf a6 51 d2 bf ab 98 b3 bd
       -1.0723876 -1.7226589 -1.6431167 -0.087693535

fc_2.weight f4 [4, 100]
000000 f8 96 15 be ef 34 dd bd 22 96 18 be 32 ac 42 3d
       -0.14608371 -0.10801112 -0.14901021 0.0475275
000010 b3 2a 2a bd 3e d3 2e bf a6 43 32 bd a9 da 9b bd
       -0.041544627 -0.6829108 -0.043521546 -0.076100655
000020 8f db 50 3d e1 ba 0a be fd 9f 92 bb c6 07 30 be
       0.050990637 -0.13547851 -0.0044746385 -0.17190465
000030 42 1e a2 be d1 d3 ec be ae 86 09 3e 7d a4 22 be
       -0.3166371 -0.46255353 0.13430282 -0.1588306
000040 68 3b e0 bc b6 e5 bf 3d dc 8f 45 3e b2 21 3c bc
       -0.027372077 0.09369986 0.19293159 -0.011482643
000050 0c c4 ad be 7d c1 5f be fd a9 7a 3e 6c 37 0c 3d
       -0.33938634 -0.21851154 0.24478908 0.034232542
000060 8e 63 99 bd 5e 89 c0 3c 03 70 19 bd cf 44 63 3c
       -0.07489692 0.023503002 -0.03746034 0.013871386
000070 9c 37 17 3e 78 f6 f6 be f9 e6 61 be 0d 94 74 be
       0.14767307 -0.48234916 -0.22060765 -0.23884602
000080 66 13 5b 3d 93 19 a5 be ec da 54 be b7 1f 30 bd
       0.053485297 -0.32246074 -0.20786637 -0.042998996
000090 b3 03 a3 3e 1f ba ac 3e 04 cc 27 bd 28 a9 e7 3c
       0.3183876 0.3373575 -0.04096605 0.028278902
0000a0 2d e0 b6 bb 4a 42 81 3d e3 e8 e9 bb e5 e6 d3 bd
       -0.005580923 0.06311472 -0.007138358 -0.10346774
0000b0 38 84 25 bd c5 10 27 bc 31 9c b7 be d7 5a 0a 3d
       -0.040409297 -0.010196869 -0.35861352 0.033778038
0000c0 02 43 58 bd eb d9 c8 3b 79 71 13 bc 4c b7 93 3e
       -0.05279828 0.0061294935 -0.008999222 0.28850782
0000d0 af 43 24 be 5b e7 36 3d a0 21 c5 3d 64 82 00 3e
       -0.16041444 0.04465423 0.09625554 0.1254974
0000e0 87 ca 13 be e7 59 59 bd eb 82 15 be 8d b7 76 3d
       -0.14432727 -0.053064253 -0.14600722 0.06023364
0000f0 b8 bb 67 bb 3d fd e8 bd 02 56 d0 bc 1f bf c3 3d
       -0.0035359692 -0.11376426 -0.025431637 0.09557938
000100 82 82 5e be 34 c0 ee 3e 1d 65 01 3e 63 95 24 3d
       -0.21729472 0.46631014 0.12636228 0.04018153
000110 30 0e d7 be 27 46 3a be 8f 71 d2 3e 88 d7 2a 3d
       -0.42003012 -0.18190823 0.41102263 0.041709453
000120 df 30 f9 3d 2e c3 6b 3c 4b 4e cf be be c4 db bd
       0.121675245 0.014389796 -0.4048942 -0.10730885
000130 83 a3 e3 bc a8 4b c4 3d 2a f4 00 3b a5 4a df bd
       -0.02778793 0.09584743 0.0019676783 -0.10902909
000140 5e ca c7 be d2 56 46 3e 38 14 83 bc 80 9f 73 bc
       -0.3902158 0.19369057 -0.016000852 -0.014869571
000150 d6 3a 32 be b8 09 f7 be 30 7e 22 3e 7a 14 a9 be
       -0.17405257 -0.48249602 0.15868449 -0.33023435
000160 0f 34 72 bd 3a 80 f3 bc 39 5f b2 be 0f 7a 27 be
       -0.05913168 -0.02972423 -0.34838274 -0.16355155
000170 50 2b 5b bf 79 fc 6f 3c 73 2e 18 3e d9 9e b8 bc
       -0.85612965 0.0146475965 0.14861469 -0.022536682
000180 e8 4b 7b 3e 5f cc 7c 3e e6 71 87 be da df 86 3c
       0.24540675 0.24687336 -0.26454085 0.016464163
000190 51 93 5a be c2 15 d1 be f4 dd 8b bc 57 47 c3 3e
       -0.21345259 -0.40836912 -0.017073609 0.38140365
0001a0 a9 11 33 3d 52 0b 9b 3e 48 43 34 3c 73 b1 e1 bd
       0.043718014 0.30282074 0.011002369 -0.11020174
0001b0 f8 4d 8f be 91 65 3d be 2b 68 18 bd 9f 18 92 be
       -0.27989173 -0.18495776 -0.037208717 -0.2853441
0001c0 85 a1 3d be 5c a0 36 be 42 fc 40 3d 60 fd ee 3e
       -0.18518646 -0.1783461 0.04711557 0.46677685
0001d0 50 76 4d bd 56 5f 03 bf 79 aa 48 bd 8f c0 3b 3b
       -0.05016166 -0.51317346 -0.0489907 0.002864871
0001e0 1d ae a5 3e 0d 6a 83 be b4 2a 1b bd 27 eb 92 3d
       0.323594 -0.25666848 -0.03788252 0.07173758
0001f0 15 82 81 3e b2 1d 2d bf 70 5f 63 be 17 7c 79 bd
       0.25294557 -0.67623436 -0.22204375 -0.060909357
000200 2f 7f f6 bd 22 a6 1a 3b 4d 42 64 3e b1 84 9f bc
       -0.12035977 0.0023597558 0.22290917 -0.019472452
000210 01 1d dc 3c 6e 6d 48 3d bc e3 7e be 26 52 ec be
       0.026869299 0.048932485 -0.24891561 -0.46156424
000220 71 ad 98 bd e8 d7 75 bd 62 ba 2a 3d 6e 7f bc be
       -0.07454956 -0.060020357 0.041681655 -0.3681597
000230 fc 84 54 be 31 56 11 be 46 a7 0d bd df 9e 46 bc
       -0.20753855 -0.14193036 -0.034583353 -0.012122839
000240 2c 5a 64 be 3b f4 ff bd 16 f3 94 be 92 f8 6d be
       -0.22300023 -0.12497755 -0.2909171 -0.23239353
000250 d5 de 3e bd 86 61 4a 3e 0e f3 af bb 56 7e 33 bd
       -0.046599228 0.19763765 -0.0053695505 -0.043821655
000260 85 03 92 be 51 53 c4 3b 6b 1d 1c 3e bf f0 39 bc
       -0.2851831 0.0059913774 0.15245597 -0.011348902
000270 95 19 11 bd 79 06 8b bb f1 7d 94 be 5c a4 53 3d
       -0.035424788 -0.004242715 -0.29002336 0.051670417
000280 fe 42 fd 3d 33 95 82 3e 0a 6f cb bb d9 fe d7 be
       0.12366293 0.25504455 -0.0062083052 -0.4218662
000290 a3 83 06 3d 2f 02 8c 3d a7 ed 9a bc 9c f9 ab 3a
       0.032840382 0.06836354 -0.01891215 0.0013120654
0002a0 01 11 fe bd 2f df 5f 3e 48 bc c5 be e5 13 82 3b
       -0.12405587 0.21862482 -0.3862021 0.003969657
0002b0 67 01 09 bf 7c 5c 2b bd 39 7b c1 3d 1f 81 03 bf
       -0.53517765 -0.041836247 0.09447331 -0.513689
0002c0 ce 84 bc bc 71 15 a6 bd 5e fb 5d be 60 80 a3 3c
       -0.023012545 -0.081095584 -0.2167792 0.019958675
0002d0 09 d7 94 be bd f4 fb 3c 3c 26 1e be 29 c1 cd bd
       -0.2907031 0.030756349 -0.15444273 -0.10046608
0002e0 68 23 d5 bd 32 93 08 bd e8 87 b7 bd 8e 87 d6 be
       -0.10407144 -0.0333435 -0.08961469 -0.41900295
0002f0 2a 9e 85 3e d1 af 69 bc ae 0c 18 be a2 00 1d 3e
       0.26097232 -0.014263109 -0.14848587 0.15332273
000300 94 87 6f 3d e1 a6 37 3e 3f c3 cc 3d b4 2b 62 3d
       0.058478907 0.17934753 0.09998178 0.05521746
000310 d2 9e 03 3d 68 05 5a be 77 ec 70 3e 44 4b 48 bc
       0.032133885 -0.21291125 0.23527704 -0.012224976
000320 0d a6 c3 bd b7 3d 1e bd 6c 1b bd be 41 e7 48 bf
       -0.09553156 -0.038633075 -0.36934984 -0.78477865
000330 c1 eb 4c bd b7 d8 43 be 62 a0 02 bd f2 c3 6c 3d
       -0.05002952 -0.19125639 -0.031891234 0.057804056
000340 78 79 31 bd 3e c8 a1 3e 56 f9 aa bd da 10 1b 3f
       -0.043328732 0.31598085 -0.08348338 0.6057259
000350 52 70 d1 bd f0 15 9c 3e 9b e6 82 bc 88 97 ca 3c
       -0.102265015 0.30485487 -0.015979102 0.024730459
000360 6d fa 21 3e b0 36 af bd af 0f 56 bd 2a 47 1c be
       0.15818186 -0.08555353 -0.05226105 -0.15261522
000370 88 2e 21 be 3f 11 d5 be 20 e9 35 3d 6e 34 58 3d
       -0.15740407 -0.4161472 0.04441178 0.052784376
000380 fd f8 08 3c eb 97 08 bf 71 4c 96 be 5d 78 93 bc
       0.008360145 -0.5335681 -0.29355195 -0.01800173
000390 76 24 9a be be db b5 bd 7c 03 21 be 57 4a 0a 3f
       -0.30105942 -0.08879803 -0.15723985 0.54019684
0003a0 49 cd 29 3e fd c0 1f 3e e1 44 0d 3f d6 ca 33 be
       0.16582216 0.15600963 0.55183226 -0.17557845
0003b0 0f ae 05 bf 01 29 d4 be 5d c2 0b bd be fa 78 be
       -0.5221872 -0.41437533 -0.034120906 -0.243144
0003c0 2e 99 84 bd eb f8 b3 bc 4a 48 7b bd ca 1d 36 bd
       -0.06474529 -0.02196928 -0.061348237 -0.044462003
0003d0 5a 6d 28 bf b0 53 11 be 8d cd dd be 1b 72 3b 3e
       -0.6579186 -0.1419208 -0.43320885 0.18305247
0003e0 d3 5c e6 bd 70 01 00 3e 53 86 3c 3d c2 2d 8b bd
       -0.112481736 0.12500548 0.04602654 -0.06795837
0003f0 40 1f ba 3e 6f 1c a6 bc fa c0 5a be 4d be f4 bd
       0.36351967 -0.02027723 -0.21362677 -0.119503595

fc_2.bias f4 [4]
000000 21 58 86 3e 8c 98 7a 3e b6 3a 8a bf ef e4 9d 3e
       0.26239112 0.24472255 -1.0799167 0.30838725

exp_avg f4 [4, 1, 5, 5]
000000 0f 00 5e 3a b6 2c 10 bb 24 89 d7 ba f8 67 2c bb
       0.00084686367 -0.0021999306 -0.0016444069 -0.0026307087
000010 77 59 a2 bb 3d 19 e8 3a 06 7f 9d 3a 6d 79 70 3b
       -0.0049545127 0.0017707717 0.0012016005 0.003669347
000020 67 b3 07 3c 0a 48 00 3b a9 12 e2 ba 41 4b 11 3a
       0.008282519 0.0019574189 -0.0017247993 0.0005542525
000030 17 06 b1 3a 4f 5d 79 3b e4 25 f5 b9 4d 10 4f bb
       0.0013505843 0.003805 -0.00046758272 -0.003159541
000040 08 97 06 39 cf 75 8a 3a de 9a 35 3a 34 63 8b bb
       0.000128355 0.0010563674 0.0006927679 -0.0042537693
000050 4d 2f 25 bb 9d 51 cd 3a 13 fa 35 3b 82 fd 80 3a
       -0.0025205195 0.0015664581 0.0027767464 0.0009841176
000060 b5 e2 68 bb 42 96 68 bc 5f 90 3e bc 01 90 d7 bb
       -0.0035535519 -0.0141959805 -0.0116311 -0.006578446
000070 76 64 70 bb 9b 0b a6 bb 24 95 aa bc 3c e0 b2 bc
       -0.0036680973 -0.0050673014 -0.020823069 -0.021835439
000080 c6 8e 69 bc 94 e9 ef bb 24 53 78 bb 3c 21 90 bc
       -0.014255231 -0.007321546 -0.0037891353 -0.017593972
000090 67 5e 84 bc a0 0e 2b bc f7 ef b3 bb 1e 1d b3 ba
       -0.016158296 -0.010440499 -0.0054912525 -0.0013665294
0000a0 8b fd 31 bb 81 7a f4 b9 fe b2 8f 39 7d 24 c4 3a
       -0.002715918 -0.0004663058 0.00027408445 0.0014964488
0000b0 b4 dc f4 39 b3 02 ef 3a a1 b3 21 3b a3 d2 37 3b
       0.00046703743 0.0018235057 0.0024673718 0.0028049133
0000c0 a3 c9 04 3b 67 4f d8 3a 13 41 35 3c 66 b3 11 3c
       0.0020261786 0.0016503156 0.011062878 0.00889287
0000d0 1a 82 1b 3c 57 88 39 3c fc 4b 43 3c 24 68 1a 3c
       0.009491468 0.01132401 0.011919972 0.009424243
0000e0 37 31 34 3b f2 c3 be 3b 65 01 e4 3b ad 41 80 3b
       0.0027495155 0.0058216983 0.006958174 0.003914079
0000f0 23 6d 56 3b 09 ff d4 3b 83 d1 24 3c c9 92 fb 3b
       0.003271886 0.006500129 0.010059717 0.0076774103
000100 5c 87 ed bb 8d 4e d7 3a ab 8a 0b 3c 43 b8 66 3c
       -0.007248802 0.0016426608 0.008516948 0.014082017
000110 23 de c0 3b da ca 52 bb 6f b0 0f 3c 53 3b 87 3c
       0.0058858558 -0.0032164366 0.008770092 0.01650778
000120 a7 91 61 3c fd b5 04 3b 3d a6 85 ba 21 db 59 3b
       0.013767636 0.0020250075 -0.0010196638 0.0033242183
000130 46 5d 78 3b a3 10 fb 3a 07 31 42 ba 07 22 bd b9
       0.0037897392 0.0019154738 -0.00074078183 -0.00036074242
000140 19 61 07 3b 5a 5f 64 3b 81 1f cf 3a 87 da 2a ba
       0.002065724 0.0034846873 0.0015802236 -0.00065175485
000150 10 89 27 ba a0 b1 84 3b 1d c9 c3 3b 6b 55 a8 3a
       -0.00063909683 0.004049495 0.0059749023 0.0012842839
000160 32 09 fd ba 96 85 39 bb d3 5f a9 3b d7 2c ec 3b
       -0.0019305109 -0.0028308383 0.005168894 0.0072074938
000170 a8 1d 27 3b 82 2c f2 38 af 8a ca ba c4 7f f4 3b
       0.0025499854 0.000115477495 -0.0015452708 0.00746152
000180 94 9f 09 3c 0b f6 ae 3b 9b d4 4c 3b 5f 2c 8e 3a
       0.008399863 0.005339389 0.0031254652 0.0010846964

exp_avg_sq f4 [4, 1, 5, 5]
000000 5f 2e 7b 3b 70 aa 1b 3b 03 76 18 3b 2c 24 52 3b
       0.00383272 0.0023752712 0.00232637 0.0032065017
000010 be 54 a0 3b dc ef 86 3a 4f f1 9a 3a d4 d3 d5 3a
       0.0048929146 0.0010294872 0.0011821183 0.001631374
000020 6f 74 19 3b 14 1e 7b 3b 0e 16 61 3a a4 f3 34 3a
       0.0023415347 0.0038317489 0.0008586355 0.00069027604
000030 ef e7 3f 3a 9a 5c 92 3a c5 13 39 3b 32 66 10 3b
       0.00073206326 0.0011166513 0.0028240543 0.002203357
000040 41 e9 54 3a 8b c1 12 3a 39 9c 53 3a 7c e5 16 3b
       0.0008121916 0.0005598298 0.000807229 0.0023024967
000050 57 48 bb 3b 6c 4a 73 3b 49 56 ca 3a 99 56 b2 3a
       0.0057154107 0.0037123216 0.0015437092 0.001360613
000060 91 02 22 3b 5a 22 f8 3b 54 3f e2 3b 8c c1 ac 3b
       0.0024720768 0.0075724544 0.006904522 0.005272096
000070 b8 3b 9f 3b 30 ae b6 3b f3 58 f7 3b e6 36 ff 3b
       0.004859414 0.005574964 0.0075484454 0.007788527
000080 c3 e9 f3 3b 78 41 f9 3b 5c 20 ee 3b a7 85 0e 3c
       0.007443638 0.0076066814 0.007267041 0.008698857
000090 69 41 01 3c 7d e2 fa 3b 0d de f5 3b d3 59 c8 3b
       0.00788913 0.007656394 0.007503277 0.0061142235
0000a0 1b 83 c3 3b 34 b1 97 3b 32 a1 5b 3b 9d aa 7b 3b
       0.0059665567 0.0046292786 0.0033512828 0.0038401254
0000b0 46 7f 9b 3b 9f dc 1f 3b 47 32 88 3a dc 8a cb 39
       0.004745397 0.0024392975 0.001039096 0.00038822636
0000c0 bb aa 41 3a c8 aa 1d 3b fc d5 50 3b 1c a9 9f 3b
       0.00073878065 0.0024058092 0.0031865826 0.0048724543
0000d0 4d 73 bb 3b 52 7e c2 3b 4c dc a3 3b 5a 70 28 3b
       0.005720532 0.0059354687 0.0050006267 0.0025701732
0000e0 24 ac 9f 3b 1b a4 d6 3b 84 ec c2 3b d4 25 80 3b
       0.0048728157 0.0065503246 0.005948605 0.0039107595
0000f0 81 6f 55 3b 72 f9 ac 3b 26 62 ea 3b c3 51 b6 3b
       0.0032567682 0.0052787596 0.0071528135 0.005563946
000100 d8 41 42 3b f6 b8 97 3b 65 de bd 3b de 18 ce 3b
       0.0029641297 0.0046302034 0.0057943338 0.0062895855
000110 5e 91 48 3b 18 29 42 3a e2 90 81 3b d7 ff 6a 3b
       0.0030604224 0.0007406636 0.003954039 0.003585806
000120 28 14 70 3b 0e 95 e4 3a a8 81 d0 39 f0 ce 11 3b
       0.0036633108 0.0017439441 0.00039769453 0.0022248589
000130 21 d0 20 3b b0 85 b4 3a db 4d 3c 3a 4f 2a ef 39
       0.0024538117 0.0013772752 0.0007183232 0.00045617155
000140 1a cf 09 3b c3 f8 3d 3b 31 83 29 3b d1 17 d8 3a
       0.0021027983 0.0028987385 0.002586555 0.001648659
000150 dc 9b ab 3a 9f 77 ed 3a 39 17 3d 3b 32 19 49 3b
       0.0013092714 0.0018117315 0.0028852953 0.0030685184
000160 94 60 23 3b 3e 16 17 3b ab 98 17 3b 76 9a 40 3b
       0.0024929391 0.002305403 0.0023131769 0.002938894
000170 af c6 2e 3b 42 9b 28 3b cb 33 14 3b 68 2f 32 3b
       0.0026668718 0.0025727306 0.0022613879 0.00271889
000180 df c0 40 3b a0 f4 33 3b 2c 19 2d 3b 02 58 1a 3b
       0.0029411835 0.002745904 0.0026412709 0.0023550992

exp_avg f4 [4]
000000 86 c0 10 bb b1 9c 0c bc ff f1 99 3b 4e 0e 3d 3b
       -0.002208741 -0.00858228 0.0046980376 0.0028847638

exp_avg_sq f4 [4]
000000 0b 47 43 3b 10 4c d8 3a 20 a1 c9 3a 44 12 10 3a
       0.0029796984 0.001650216 0.0015383102 0.0005495886

exp_avg f4 [10, 4, 5, 5]
000000 a1 31 d0 ba a5 06 d4 ba 8b e1 6e 37 ec 70 e0 38
       -0.0015883931 -0.0016176297 1.4238419e-05 0.00010702186
000010 ad 73 c2 38 c0 05 06 ba ae c2 10 ba 27 65 88 b8
       9.272187e-05 -0.0005112551 -0.00055221736 -6.5038264e-05
000020 3c 0e 4a 39 45 8b 22 3a 94 b2 98 37 87 46 44 b9
       0.00019269524 0.00062005623 1.8202969e-05 -0.0001871829
000030 ca 1e 74 37 4d 1e ee 38 92 24 57 3a d0 12 c2 b7
       1.4550702e-05 0.00011354368 0.00082070485 -2.3135362e-05
000040 71 af 54 38 7d 1a a0 38 3b aa 9c 39 a6 35 fb 39
       5.070813e-05 7.634328e-05 0.0002988147 0.00047914422
000050 41 15 bb 39 17 24 1d 3a c9 ff 3e b5 68 f4 c2 b9
       0.00035683255 0.00059944525 -7.115273e-07 -0.0003718466
000060 d5 af c6 39 44 3c fb b9 6c 8f bb ba 95 61 bc ba
       0.00037896508 -0.00047919352 -0.0014309711 -0.0014372343
000070 a2 2b d2 b9 84 b9 79 38 1c f6 74 b9 4c 36 66 b9
       -0.0004008683 5.9539e-05 -0.00023361336 -0.00021954736
000080 1f 5b 58 ba 0e d2 85 ba d4 9a 3a ba 5e 98 ce b6
       -0.0008253324 -0.0010209696 -0.0007118408 -6.1570163e-06
000090 89 7c 2f b7 52 cf 67 38 92 c4 04 39 dd db b5 39
       -1.0459808e-05 5.5267774e-05 0.00012661729 0.0003468682
0000a0 27 df 31 b7 43 4c 0a b6 ff 2b 2a 35 d4 1d ff 36
       -1.0601979e-05 -2.0607993e-06 6.339396e-07 7.6030647e-06
0000b0 21 24 94 38 9d f9 1a 39 e5 10 4f 3a 63 1d 00 3b
       7.0639195e-05 0.00014779573 0.0007898941 0.0019548766
0000c0 4a e3 03 3b 33 59 78 3a a7 8d 5c b7 bd 43 06 ba
       0.0020124489 0.0009473741 -1.3146003e-05 -0.0005121788
0000d0 50 c0 48 ba c1 82 0b 37 57 73 30 b8 35 de 26 b8
       -0.00076580513 8.315489e-06 -4.206909e-05 -3.978443e-05
0000e0 1b f5 09 b8 52 ea 42 b8 79 55 c2 b9 48 b4 a2 b9
       -3.2891618e-05 -4.6471432e-05 -0.00037066246 -0.00031033368
0000f0 0b 5d 91 b5 27 1f 18 b7 15 1b 46 b8 86 ae 7f b8
       -1.0830421e-06 -9.067159e-06 -4.72321e-05 -6.0959275e-05
000100 dd 47 a0 37 7e 76 a7 b2 c4 55 e8 34 40 2f 96 38
       1.910695e-05 -1.9495243e-08 4.327577e-07 7.1613584e-05
000110 77 c5 25 38 14 59 82 38 ac 37 2a 38 8c 18 3e 38
       3.952297e-05 6.215475e-05 4.0583007e-05 4.532239e-05
000120 7d 08 1d 39 7d 09 dc 39 b4 ac 3f 3a 09 d8 f3 b8
       0.00014975849 0.0004196874 0.00073118065 -0.000116273826
000130 de 8a b9 b8 c2 94 2a b9 02 c9 8d b9 43 c2 45 b9
       -8.8473535e-05 -0.0001626788 -0.00027043378 -0.00018859752
000140 b5 24 8d 38 ec d7 85 38 fc f9 26 38 9d 84 a0 b8
       6.730241e-05 6.382153e-05 3.98103e-05 -7.654096e-05
000150 06 fc 24 b8 e8 48 3e b7 65 73 46 b6 1f ee e1 b7
       -3.9335362e-05 -1.1341857e-05 -2.9571468e-06 -2.6932974e-05
000160 48 e7 04 39 15 e0 d6 38 19 86 92 b7 35 8b 5e b7
       0.0001267466 0.00010246054 -1.7467e-05 -1.3264643e-05
000170 d7 3c 9f 39 e4 d8 11 b8 0a 71 52 38 32 11 15 b8
       0.00030372172 -3.477269e-05 5.0173177e-05 -3.5540383e-05
000180 c5 43 2c 39 4f 9f 9f 3a 8b b4 4d 3a 7c 18 a4 b8
       0.00016428444 0.0012178215 0.00078470324 -7.82469e-05
000190 82 84 c3 b8 fb 06 35 b9 f0 26 1b b9 16 d4 09 b9
       -9.323006e-05 -0.00017264106 -0.00014796457 -0.00013144346
0001a0 e6 a6 a3 b6 25 b1 00 b9 7c da fd b8 dd 80 41 b9
       -4.877208e-06 -0.00012273023 -0.00012104676 -0.0001845392
0001b0 a1 be 1e b9 cd fa c8 b8 58 01 33 35 97 1f 8e b7
       -0.00015139069 -9.5834584e-05 6.668465e-07 -1.694243e-05
0001c0 73 1c b0 b9 92 0f 8b b9 b9 96 ef b8 a0 49 b8 ba
       -0.00033590532 -0.00026523747 -0.00011424482 -0.0014060028
0001d0 97 2d 3f 36 39 56 c4 37 1f 11 2b b9 ce f2 63 37
       2.8487755e-06 2.3405171e-05 -0.00016314209 1.3586787e-05
0001e0 00 c2 74 bb da b6 e0 ba c7 d4 94 b9 e6 7d e5 35
       -0.0037347078 -0.0017144338 -0.0002838729 1.7098471e-06
0001f0 ff be da b8 df 2e 07 b6 f3 37 7e b9 2e d0 b3 b9
       -0.00010430626 -2.014385e-06 -0.0002424417 -0.00034296646
000200 0f 29 0f b9 08 06 45 b9 d2 7a 4b b8 04 b4 34 b9
       -0.00013652838 -0.00018789631 -4.8513357e-05 -0.00017233199
000210 9a 90 32 b9 31 e8 f0 b8 db 70 93 b7 ee fe 82 38
       -0.00017029271 -0.00011487341 -1.7576318e-05 6.2463674e-05
000220 dc de 01 b5 46 2e 97 b6 80 39 cd 37 9d 35 a5 ba
       -4.838055e-07 -4.5055376e-06 2.446468e-05 -0.0012604479
000230 61 13 97 bb bf 67 02 bc 65 a0 d4 bb e0 8e 8a bb
       -0.0046104644 -0.007959305 -0.006488847 -0.004228458
000240 b8 4b ad bb d2 dd 3d bb 04 2b ba bb ee 5a bb bb
       -0.0052885674 -0.0028971327 -0.0056813974 -0.005717627
000250 8d c1 37 bb cd 36 bd b9 2f b1 dc b7 c0 96 58 ba
       -0.002803895 -0.0003608972 -2.6308551e-05 -0.00082622096
000260 d8 c0 ac b9 4f 4c ab 38 65 f7 3b bb d1 43 23 ba
       -0.00032950076 8.168129e-05 -0.0028681394 -0.0006228062
000270 fe c0 d8 b9 d1 05 65 b8 57 fc ff b9 c5 f8 0b bb
       -0.0004134252 -5.460327e-05 -0.00048825398 -0.0021357995
000280 b5 af 83 b9 15 04 9a b7 6d c7 7d b8 c3 f8 d1 38
       -0.0002511718 -1.8360131e-05 -6.050563e-05 0.00010012232
000290 d0 d4 c2 b8 09 6e 00 b8 3f 29 5f ba ef af 11 bb
       -9.29028e-05 -3.0620056e-05 -0.0008512921 -0.0022230109
0002a0 4d b1 40 bb 5d a2 23 bb 6c f9 46 ba d3 81 2d ba
       -0.0029402555 -0.0024968602 -0.00075902673 -0.00066187716
0002b0 ba 41 28 ba c9 c0 a5 b9 b9 8e 75 b9 35 aa 36 39
       -0.00064184854 -0.0003161489 -0.00023418189 0.0001742028
0002c0 1b 53 4d b3 94 7d d5 b8 6f 9b aa b8 00 e5 13 b8
       -4.7805866e-08 -0.00010180022 -8.1351835e-05 -3.5260804e-05
0002d0 bd 8c 4e 38 5f 0e c8 b6 b8 a2 90 36 4b c1 3e 38
       4.92453e-05 -5.9621375e-06 4.3104774e-06 4.5479548e-05
0002e0 4b d6 2b ba 52 04 f4 b8 2b 50 26 38 a6 6c 8b 37
       -0.00065550645 -0.000116356314 3.9652146e-05 1.6620685e-05
0002f0 50 33 08 b9 3e f9 c6 ba 3e c4 75 ba 21 a5 ec ba
       -0.00012989086 -0.0015180481 -0.00093752507 -0.0018054583
000300 85 9b 8a ba d3 b4 1f b9 c8 3f b7 b9 82 5a 27 b9
       -0.0010574913 -0.00015230784 -0.00034952 -0.00015960078
000310 ca b4 8f b7 40 90 95 b7 5a 47 a0 b8 bc 7c 3c b9
       -1.7131115e-05 -1.7829356e-05 -7.642685e-05 -0.00017975544
000320 92 ac 8c 39 99 bf 76 39 40 2b 83 39 f7 78 85 39
       0.00026831456 0.00023531764 0.0002501849 0.00025457863
000330 40 5a 37 38 9a 73 35 38 cd 7d 08 39 7e 7b ca 38
       4.3714652e-05 4.3261425e-05 0.00013016835 9.655113e-05
000340 b6 f8 3d 39 37 af 38 b8 24 d5 9b b8 7e cc 07 ba
       0.00018117097 -4.40322e-05 -7.4306765e-05 -0.0005180313
000350 0a b2 3e 37 a4 bc c8 39 46 93 f6 39 18 f4 7b b9
       1.13663355e-05 0.0003828752 0.00047030504 -0.00024028157
000360 b7 8a 86 ba 4c bc bc b8 99 b7 bd 38 ad 91 80 38
       -0.0010264729 -8.9996116e-05 9.04642e-05 6.13065e-05
000370 e6 2f c3 39 51 db a4 b7 38 13 fd b9 d8 50 56 38
       0.00037228985 -1.965245e-05 -0.0004827024 5.1096868e-05
000380 dc 45 a5 b8 d9 e3 02 b8 73 08 1f 39 9b 15 6d 38
       -7.8808254e-05 -3.1206615e-05 0.00015166569 5.6525325e-05
000390 72 15 1c b9 37 75 02 b9 75 82 54 36 1d e6 19 b6
       -0.00014885308 -0.00012441432 3.1666398e-06 -2.293272e-06
0003a0 25 26 b4 38 63 2c b0 b8 d6 db 52 39 03 36 f4 38
       8.590174e-05 -8.400602e-05 0.00020109056 0.00011644887
0003b0 b2 8e 02 39 af ba 20 b8 47 27 4d 39 69 a3 e5 38
       0.00012450924 -3.8320835e-05 0.00019564955 0.000109500084
0003c0 cf 17 89 3a 48 b3 80 3a fa 73 07 3a ef 46 1d 3a
       0.0010459366 0.0009819055 0.0005167123 0.00059996446
0003d0 e4 e7 fc b9 25 ed c0 ba 16 c8 77 ba e9 66 9a 3a
       -0.00048237958 -0.0014719112 -0.00094521174 0.0011779937
0003e0 c6 08 82 3a b2 f4 3d ba 88 a3 b4 38 97 ed 0a 38
       0.0009920828 -0.000724624 8.613529e-05 3.3123037e-05
0003f0 6c eb 09 3b ec 34 29 3b 54 33 52 b8 aa 2c 32 36
       0.0021044863 0.0025818897 -5.0115705e-05 2.6550065e-06

exp_avg_sq f4 [10, 4, 5, 5]
000000 ad b0 38 38 b5 73 93 38 dd a7 52 38 e6 6a d8 36
       4.403356e-05 7.031058e-05 5.0224236e-05 6.4497463e-06
000010 50 f6 06 38 a9 c7 8b 37 7c df 39 38 8b 0c 06 39
       3.2177486e-05 1.6663065e-05 4.4315573e-05 0.00012783908
000020 be 80 da 38 a0 7d b7 38 5f 3c 8e 37 ad 6b bc 38
       0.0001041903 8.7495195e-05 1.6955832e-05 8.984595e-05
000030 58 3e 64 39 65 47 4d 39 a3 2f 81 38 fd 13 66 37
       0.00021766999 0.0001957692 6.1600724e-05 1.3713722e-05
000040 8e 97 59 38 9d e1 38 38 9d d5 00 38 49 a5 94 37
       5.1877978e-05 4.4079137e-05 3.071652e-05 1.7719942e-05
000050 48 65 1c 38 af a0 27 38 a0 6a f4 37 ff 99 b1 38
       3.7287624e-05 3.996555e-05 2.9136718e-05 8.468702e-05
000060 c6 a8 5a 38 ee 7d a4 37 6b 3f 66 38 86 c0 be 38
       5.2132433e-05 1.9608964e-05 5.4895336e-05 9.095766e-05
000070 f1 e6 7f 38 c0 b7 a2 37 01 49 9b 38 13 96 54 38
       6.101182e-05 1.939747e-05 7.404574e-05 5.0684506e-05
000080 0d c2 ad 38 bf f8 89 39 f1 60 9e 39 c7 e1 d6 38
       8.2854276e-05 0.00026316007 0.00030208335 0.000102463695
000090 d6 99 17 39 25 46 8d 39 be 67 a9 39 ce 1b 98 39
       0.0001445779 0.00026945877 0.00032311486 0.00029012415
0000a0 a5 33 11 38 81 7c 20 38 40 82 23 38 10 c8 3b 38
       3.461879e-05 3.8262926e-05 3.8983533e-05 4.4770597e-05
0000b0 de fa 20 39 02 db 31 38 f5 be 03 39 a8 d3 68 39
       0.00015352244 4.2404055e-05 0.0001256427 0.00022204092
0000c0 f0 5d a8 39 70 eb eb 39 e7 c8 68 36 8a a4 f5 37
       0.00032113446 0.00044998107 3.4687635e-06 2.9282895e-05
0000d0 7c 99 01 38 ed ad 04 37 04 f6 23 38 c9 c3 48 37
       3.089894e-05 7.908308e-06 3.909135e-05 1.1966514e-05
0000e0 43 00 b3 36 9a 80 f9 34 de 84 d7 37 26 e7 6a 38
       5.334646e-06 4.6473434e-07 2.5691868e-05 5.600522e-05
0000f0 b8 91 f8 35 cb 32 2e 36 1e 3a 0c 37 b1 71 cf 37
       1.851985e-06 2.5957586e-06 8.358182e-06 2.4729265e-05
000100 41 f6 b8 37 8b a2 3f 35 87 e0 32 34 3f 50 5c 36
       2.204918e-05 7.1389576e-07 1.6659224e-07 3.2829264e-06
000110 3b 2b cc 37 44 12 2b 39 ff 0d c6 36 e9 65 67 36
       2.4338826e-05 0.00016314635 5.902489e-06 3.4481002e-06
000120 ba 10 44 38 8a 37 2a 39 f5 c8 83 39 b5 38 a9 37
       4.674562e-05 0.00016233153 0.00025135992 2.0172776e-05
000130 c6 a3 20 37 9a 93 15 37 93 de cf 37 9a 57 d3 37
       9.574875e-06 8.915458e-06 2.4779967e-05 2.5193953e-05
000140 dd dd b7 36 de f2 05 37 e6 ae 1a 37 20 af fd 37
       5.4796533e-06 7.983965e-06 9.219837e-06 3.02415e-05
000150 d4 40 b9 38 10 f3 a2 36 e9 fa 12 37 bb d6 d1 36
       8.8335626e-05 4.8562724e-06 8.760698e-06 6.2536833e-06
000160 a3 23 14 37 47 13 06 38 93 e7 ad 35 ad 5e f5 36
       8.829785e-06 3.1966043e-05 1.2956901e-06 7.3125907e-06
000170 c6 5b 2a 37 7d 37 79 37 65 7a fc 37 fd e6 9a 36
       1.0154157e-05 1.4854476e-05 3.0097735e-05 4.616448e-06
000180 8f f3 cf 37 31 b5 5c 38 59 ed 87 38 cc d7 4d 38
       2.4789739e-05 5.2620835e-05 6.481511e-05 4.9076785e-05
000190 61 42 6b 38 68 d7 82 38 65 8c f9 37 e6 05 0d 38
       5.6090186e-05 6.2390056e-05 2.974849e-05 3.3622513e-05
0001a0 9f 8f 44 37 c6 6a 02 38 f8 78 89 38 97 31 0b 38
       1.171595e-05 3.1093856e-05 6.555201e-05 3.3186367e-05
0001b0 30 de 95 38 f0 6c 4e 37 13 09 9e 36 c0 7e 01 38
       7.146259e-05 1.2303921e-05 4.7098233e-06 3.0874042e-05
0001c0 1f 87 34 38 70 9f f3 38 36 12 52 38 56 6f 8f 37
       4.3041186e-05 0.000116168405 5.0084862e-05 1.7098773e-05
0001d0 42 34 e2 36 ae 7c 72 37 df 1d 9a 38 7c 57 0a 38
       6.7414085e-06 1.4453353e-05 7.348856e-05 3.298324e-05
0001e0 01 67 f4 38 e8 51 be 38 73 de ab 37 51 e7 1c 37
       0.000116540126 9.075162e-05 2.0488375e-05 9.352182e-06
0001f0 11 a4 21 38 90 52 f3 38 43 62 1c 39 31 ca 39 39
       3.853819e-05 0.000116025214 0.00014913925 0.00017718297
000200 fb c8 e5 38 7c a3 48 38 5c 27 94 38 de fe 3a 38
       0.000109570065 4.7835973e-05 7.064521e-05 4.458322e-05
000210 19 3c c4 37 2e 6b a7 37 5d 3f 06 38 44 62 3e 38
       2.3393006e-05 1.995786e-05 3.20071e-05 4.5391047e-05
000220 d2 22 01 36 59 a4 a7 34 60 93 e9 37 79 6f 66 38
       1.9242766e-06 3.1225753e-07 2.7844391e-05 5.494009e-05
000230 77 5c e6 39 d6 ad b8 39 dc 5b 7f 39 59 de 31 39
       0.0004393791 0.00035224733 0.00024352915 0.00016962866
000240 d7 ef c6 38 8b b6 06 3a 34 89 09 3a 8a ba a7 39
       9.4860494e-05 0.00051388954 0.000524658 0.00031991705
000250 bb f7 15 39 36 ee c3 38 6c 45 21 3a 1f 61 be 38
       0.00014302034 9.342695e-05 0.0006152007 9.077996e-05
000260 74 e5 1f 38 dc 62 55 37 27 e8 9f 37 1a 52 52 39
       3.812225e-05 1.2718807e-05 1.9062381e-05 0.00020057746
000270 60 72 2c 37 d4 a6 07 37 80 fa 70 37 f7 b9 fc 38
       1.0278629e-05 8.08547e-06 1.4363439e-05 0.00012050935
000280 23 0d 68 38 20 c6 aa 36 78 52 41 38 c9 24 18 39
       5.5325345e-05 5.0894596e-06 4.609159e-05 0.00014509553
000290 35 a7 95 39 88 57 a0 38 a1 d6 0e 38 14 9c 36 39
       0.00028544074 7.6456985e-05 3.4055327e-05 0.00017415016
0002a0 73 6e 77 39 29 bc b7 38 f3 59 97 38 bb ed d5 38
       0.00023596901 8.7611676e-05 7.2169954e-05 0.00010200912
0002b0 79 7c 37 39 6c d2 8a 38 72 5e 35 38 e7 7e b5 37
       0.0001749861 6.619547e-05 4.3241722e-05 2.1635975e-05
0002c0 5e a9 4f 37 d6 2e 5d 37 9e 15 90 37 b0 b0 84 37
       1.2377595e-05 1.3183531e-05 1.7176204e-05 1.5817903e-05
0002d0 1b 42 c4 37 9f 91 c2 35 52 d8 15 36 0b 6a 7b 37
       2.3395804e-05 1.4496508e-06 2.2328645e-06 1.4985456e-05
0002e0 61 4b a8 37 50 3b 5e 38 d0 4c 03 37 35 1a ce 36
       2.0062262e-05 5.2984164e-05 7.826093e-06 6.1423293e-06
0002f0 8f 17 8f 37 f3 f2 cd 37 48 54 d9 38 4a ed aa 38
       1.7057899e-05 2.4551036e-05 0.00010363065 8.15043e-05
000300 11 bc 87 38 6f 39 0c 38 31 82 29 37 ac 2c c1 37
       6.472332e-05 3.343209e-05 1.01034975e-05 2.3028195e-05
000310 88 7d 50 38 91 59 a7 38 1c fc 83 38 35 8b d8 37
       4.9707975e-05 7.9798636e-05 6.293526e-05 2.581403e-05
000320 7d cc a9 38 cd 98 47 38 00 05 5e 37 c0 a5 22 38
       8.096637e-05 4.7587604e-05 1.3233395e-05 3.8778177e-05
000330 57 27 4d 38 46 7a 5e 38 d1 16 ee 38 64 7f a0 37
       4.8912447e-05 5.30428e-05 0.00011352974 1.9132807e-05
000340 1e 1a 0e 38 6c 25 27 38 90 ee 2a 38 9c cb f5 38
       3.387976e-05 3.9850755e-05 4.0753337e-05 0.000117204356
000350 af b9 37 37 c4 7c f1 37 26 84 e8 37 12 d4 cd 38
       1.0950883e-05 2.8787537e-05 2.7718092e-05 9.814663e-05
000360 ef 47 4c 39 43 e5 4e 37 75 06 67 38 3c 2c 99 37
       0.00019481753 1.2331936e-05 5.5080705e-05 1.825962e-05
000370 92 3f 55 39 e4 43 be 39 c8 24 cc 38 e8 e8 49 38
       0.00020336945 0.00036290206 9.734329e-05 4.8139045e-05
000380 13 5b 64 37 2f c2 d4 38 30 51 6d 38 aa 6c 31 38
       1.3611064e-05 0.00010145117 5.6580815e-05 4.230129e-05
000390 ec 53 3f 38 f5 b1 93 38 23 b5 df 36 88 54 a9 37
       4.5616107e-05 7.042653e-05 6.667005e-06 2.0185733e-05
0003a0 9e e7 82 38 91 95 25 38 47 0e 5d 38 0e 92 90 37
       6.242025e-05 3.947836e-05 5.2703803e-05 1.723415e-05
0003b0 7f a6 20 37 7c 8a 9d 36 a8 c6 bb 37 a0 02 20 38
       9.575509e-06 4.6950863e-06 2.2384644e-05 3.8149417e-05
0003c0 36 c0 00 39 c5 11 bd 38 fa f2 ac 38 f0 eb 91 38
       0.00012278635 9.015532e-05 8.246857e-05 6.9580856e-05
0003d0 73 c3 66 39 90 50 fc 38 be 3b ad 39 b6 76 27 3a
       0.0002200732 0.00012031302 0.00033041643 0.0006388234
0003e0 67 03 18 3a 3e 55 07 3a 74 ac 49 38 2e 82 96 38
       0.0005798847 0.00051625434 4.8082744e-05 7.176805e-05
0003f0 6d f0 55 39 1c 5c 9e 39 40 1b 90 38 68 d5 56 38
       0.00020402829 0.00030204735 6.871531e-05 5.1220326e-05

exp_avg f4 [10]
000000 fc 67 99 b8 74 49 68 ba ef 34 b1 39 33 09 9a b9
       -7.314977e-05 -0.0008861043 0.0003379951 -0.00029380023
000010 84 be 46 3a 6e 7b f3 39 3b 80 db b9 37 74 8f b8
       0.00075814896 0.00046440534 -0.00041866474 -6.840418e-05
000020 49 6c 80 39 3f 60 36 ba
       0.0002449474 -0.0006957091

exp_avg_sq f4 [10]
000000 da d8 18 38 1b af c7 37 4d 83 f4 37 e9 2e e4 37
       3.6441583e-05 2.3804188e-05 2.9148208e-05 2.7201562e-05
000010 5b bd 05 38 3e 0b 05 38 69 a2 2c 38 be db 01 38
       3.1886022e-05 3.172014e-05 4.1159252e-05 3.0960648e-05
000020 d4 4b 17 38 14 f2 43 38
       3.6071826e-05 4.6717076e-05
