SOSE_24/DEV/Shallow Networks to CNN/model_Shallow_FMNIST2024-04-21_15-41-25.pth (torch, 43520 bytes, 8 tensors)

hidden1.weight f4 [64, 100]
0	0x3d0966e8	0.033545405
1	0x3d48fbe0	0.04906833
2	0xbd8ad98f	-0.06779777
3	0xbdc67462	-0.09690167
4	0xbda62f6b	-0.08114513
5	0x3d76fac6	0.06029775
6	0x3d015ae7	0.03158083
7	0x3d634ae2	0.055491336
8	0xbdbf2f9a	-0.09335251
9	0x3d1172df	0.03550994
10	0xbc73240e	-0.014840139
11	0xbd3aae68	-0.045576483
12	0x3d3ac0a2	0.045593865
13	0x3cab57e9	0.020915942
14	0xbd5094e6	-0.05092325
15	0x3bc30860	0.005951926
16	0xbd175c7f	-0.036953446
17	0xbc04acb0	-0.0080978125
18	0xbdd38a9c	-0.10329172
19	0x3ce13627	0.027491642
20	0x3ca2e3c4	0.019883998
21	0x3d629102	0.05531407
22	0x3ddb175c	0.10697815
23	0x3b55a575	0.003259984
24	0x3d756498	0.059910387
25	0xbd0a5371	-0.033770982
26	0xbd963285	-0.073338546
27	0x3db5f5a9	0.088847466
28	0x3d27bcf7	0.040951695
29	0xbd9d1c49	-0.076714106
30	0xbd1326ba	-0.035925604
31	0xbd719c5f	-0.058987018
32	0xbc1f4c89	-0.009722837
33	0x3d0e7732	0.034781642
34	0x3d080840	0.033210993
35	0x3de509fd	0.11183546
36	0xbb4b44d4	-0.0031016367
37	0x3d0000ce	0.031250767
38	0x3d0e8fff	0.034805294
39	0x3d8a980a	0.067672804
40	0xbd4566b3	-0.048193645
41	0x3df25b34	0.11833802
42	0xbd432307	-0.047640827
43	0xbd80f55e	-0.062968
44	0x3de4d9fb	0.11174389
45	0x3d8b5f14	0.06805244
46	0xbbca81ed	-0.006180039
47	0xbb8ae3f9	-0.0042386022
48	0x3d1d4f87	0.03840592
49	0x3d53bdeb	0.05169479
50	0xbd4e8bb1	-0.05042619
51	0xbb776ab3	-0.0037752807
52	0x3d4afd3c	0.04955791
53	0x3c0bb602	0.008527281
54	0xbda37f3f	-0.07983255
55	0xba99734e	-0.0011707337
56	0x3cee8df3	0.029120421
57	0xbbca6a74	-0.006177241
58	0xbd9ca1ae	-0.076480255
59	0x3d08b712	0.033377714
60	0x3d8d5a77	0.069020204
61	0xbd8b9e81	-0.068173416
62	0x3d6a3181	0.057176117
63	0xbdc71dba	-0.09722467
64	0xbd2d1705	-0.04225828
65	0x3d178518	0.036992162
66	0x3ce6c56a	0.028170306
67	0x3c8046b6	0.015658718
68	0x3c00faff	0.007872342
69	0x38fb2c57	0.000119768716
70	0x3dadb72a	0.084822014
71	0x3d1a4790	0.037665904
72	0x3d0c0bf7	0.034191098
73	0x3d0226b9	0.03177521
74	0x3d068754	0.032843903
75	0x3c9a6188	0.018845335
76	0xbd3b0843	-0.045662176
77	0x3d6c3d0b	0.057675403
78	0xbda75288	-0.081700385
79	0x3a5cf252	0.00084284425
80	0xbc27d5ca	-0.010243842
81	0x3c8b4367	0.016999913
82	0x3d4dc666	0.050238036
83	0x3b50837f	0.003181666
84	0xbdeded20	-0.11617494
85	0xbd66acfd	-0.05631732
86	0x3da342d9	0.079717346
87	0xbd71afdd	-0.059005607
88	0x3c522018	0.012825035
89	0x3d3d6976	0.046243154
90	0x3cb50f86	0.022102129
91	0x3d3c2f76	0.0459437
92	0xbda0780f	-0.07835399
93	0xbd57a2c1	-0.05264545
94	0xbd68ab16	-0.056803785
95	0x3cc5ffd9	0.02416985
96	0xbda86866	-0.082230374
97	0xbd502c6a	-0.050823607
98	0xbd9949e4	-0.07484797
99	0xbd054f77	-0.032546487
100	0x3c9d38b3	0.019192075
101	0x3d013193	0.03154142
102	0xbd576735	-0.05258866
103	0x3ddb3674	0.107037455
104	0xbce0ba41	-0.027432563
105	0xbb5ba41b	-0.0033514563
106	0x3dc3eb27	0.09566336
107	0x3d16d8e8	0.03682795
108	0x3d415949	0.04720429
109	0xbd1054a4	-0.03523697
110	0xbbafd1fe	-0.005365609
111	0xbd9dddf7	-0.07708352
112	0xbd0d02d6	-0.034426533
113	0x3d8806c1	0.06641913
114	0x3d38849d	0.045048345
115	0xbd4a7e7d	-0.049437035
116	0x3db1ddad	0.086848594
117	0xbd31959c	-0.04335557
118	0xbd012d23	-0.031537186
119	0x3d346616	0.04404267
120	0x3c3fa816	0.01169779
121	0xbbec2c75	-0.007207448
122	0xbccf8e33	-0.02533636
123	0xb99d1bef	-0.00029966186
124	0x3e1709bf	0.14749812
125	0x3c7dd40e	0.015492452
126	0x3c9c9524	0.019114085
127	0xbc100c48	-0.008791991
128	0x3d432c42	0.04764963
129	0x3d93b91b	0.072130404
130	0xbd1fa434	-0.038974956
131	0xbdc5e494	-0.096627384
132	0x3d905a53	0.07048478
133	0x3d8c4932	0.068498984
134	0x3e23455e	0.1594443
135	0x3d9e98f4	0.07744017
136	0xbdc5c7f0	-0.09657276
137	0xbc0e2fb0	-0.008678362
138	0xbbfffff3	-0.007812494
139	0xbdc2f91c	-0.0952017
140	0x3ca9b352	0.02071539
141	0xbd672156	-0.056428276
142	0xbd1a91dc	-0.03773676
143	0xbcaa3652	-0.020777855
144	0x3ce916df	0.028453289
145	0x3dc2b0f4	0.095064074
146	0x3dadb871	0.08482445
147	0xbddb8512	-0.107187405
148	0x3dd25741	0.102705486
149	0x3d1a0f4c	0.037612244
150	0xbc134137	-0.008987716
151	0x3dc80a07	0.097675376
152	0xbd756542	-0.05991102
153	0x3da0545e	0.07828592
154	0x3d6f0253	0.058351826
155	0xbcb5b52f	-0.022181122
156	0x3a0bd9d6	0.0005334889
157	0x3d4ac44d	0.049503613
158	0x3c438603	0.011933806
159	0xbd918dec	-0.071071476
160	0x3dc42cf6	0.09578888
161	0x3d79f3f7	0.06102368
162	0x3d5aa357	0.05337843
163	0x3d9dc102	0.07702829
164	0x3d48d836	0.04903432
165	0xbdcaf852	-0.099106446
166	0x3cc81778	0.024425253
167	0xbc4d13bb	-0.012516911
168	0xbddf193e	-0.108934864
169	0x3a8780f2	0.0010338111
170	0x3c88975e	0.01667374
171	0xbd6fab54	-0.058513
172	0xbe0f0dbc	-0.13970083
173	0x3dab23d2	0.083564416
174	0xbd8f5a88	-0.06999689
175	0x3d2f5433	0.042804908
176	0xb8951d74	-7.11036e-05
177	0xbd9e8cf5	-0.07741729
178	0xbd1a03e8	-0.03760138
179	0xbd9d9b91	-0.076956876
180	0xbd9bf852	-0.07615723
181	0xba460a43	-0.00075546297
182	0xbd930060	-0.07177806
183	0xbd9378e8	-0.072007954
184	0x3c6a4d57	0.014300666
185	0x3d2b20a9	0.041779194
186	0xbd02270b	-0.031775516
187	0xbc5b8152	-0.013397532
188	0xbd0d784e	-0.03453856
189	0xbdc8c1ed	-0.098026134
190	0xbc9581b8	-0.018250331
191	0xbcda6f6a	-0.026664454
192	0xbd18a5bb	-0.037267428
193	0x3e035b51	0.12827803
194	0x3db3b4e4	0.087747365
195	0x3d5667e5	0.052345175
196	0x3e148c6a	0.14506689
197	0xbdbb7977	-0.09154027
198	0xbd0841ce	-0.03326588
199	0x3cfb37f8	0.030666336
200	0x3d60542c	0.054767773
201	0x3d9fafbf	0.07797193
202	0x3daadabd	0.08342502
203	0xbd55865d	-0.052130092
204	0xbc08283a	-0.008310372
205	0x3c993010	0.018699676
206	0x3da5cc43	0.080956005
207	0x3d8537f2	0.06504811
208	0xbd56b17f	-0.052415367
209	0x3d15b4d0	0.03654939
210	0xbc53e34b	-0.012932609
211	0x3c813320	0.015771449
212	0x3b9c963d	0.004778652
213	0xbdb9c47f	-0.09070682
214	0xbc8d918e	-0.01728132
215	0x3dc99673	0.09843149
216	0x3d5e926a	0.05433885
217	0x3cdaebba	0.026723731
218	0xbd5e99f4	-0.05434604
219	0x3d141e81	0.036161903
220	0xbc382910	-0.011240259
221	0x3da71095	0.0815746
222	0xbd85a4b5	-0.06525556
223	0x3cfaa40e	0.030595805
224	0x3c7a3945	0.015272443
225	0x3d16b3a9	0.03679243
226	0xbd9b69b3	-0.0758852
227	0xbd77f20a	-0.06053356
228	0x3dac525f	0.084141485
229	0xba8365cd	-0.0010024846
230	0xbdac1409	-0.08402259
231	0x3d567cc6	0.052365087
232	0xbd56b7b0	-0.05242127
233	0x3d9fd21b	0.07803746
234	0xbd942476	-0.07233517
235	0xbdc8267b	-0.097729646
236	0x3cfb565c	0.030680828
237	0xbd1af259	-0.037828777
238	0xbda5f6a8	-0.081036866
239	0xbd84c549	-0.06482942
240	0xbda728b7	-0.081620626
241	0x3ba6af3a	0.0050868066
242	0x3cfdbcd0	0.030973822
243	0xbd42c977	-0.047555413
244	0x3c1362ac	0.008995693
245	0x3daab661	0.08335567
246	0xbd2d792d	-0.04235189
247	0x3d22eb29	0.039775047
248	0x3ccca8b4	0.024982788
249	0xbd9aee1e	-0.075649485
250	0x3d19553d	0.037434805
251	0x3dafb917	0.08580225
252	0xbd860f58	-0.06545895
253	0x3dc0dbea	0.09416945
254	0xbd8086ab	-0.06275686
255	0x3d876d00	0.06612587

hidden1.bias f4 [64]
0	0xbcf2b405	-0.029626856
1	0x3d6b8477	0.057499375
2	0x3c80a49e	0.015703496
3	0x3ad4d217	0.0016236928
4	0x3aacebbd	0.0013192814
5	0xbce75991	-0.02824095
6	0xbd8882aa	-0.06665547
7	0x3d3747e4	0.044746295
8	0x3dd3d5c6	0.103435084
9	0x3e0cf787	0.13766299
10	0x3d45f4e4	0.04832925
11	0x3e1cc5d6	0.15309843
12	0x3dbe5d1b	0.09295102
13	0x3dcd7a0c	0.10033044
14	0x3de5c66a	0.11219485
15	0x3ddd4a71	0.10805214
16	0xbd842dd5	-0.06454054
17	0xbd88142a	-0.06644471
18	0x3da82274	0.082096964
19	0x3dfea86b	0.12434467
20	0xbd52623f	-0.051363226
21	0x3d9bb7c0	0.07603407
22	0xbc0326b2	-0.008004831
23	0x3dc8c530	0.098032355
24	0xbd200183	-0.03906394
25	0x3e11f797	0.14254604
26	0xbd257eec	-0.040404245
27	0x3c87c925	0.016575405
28	0x3dab95d5	0.083781876
29	0x3db32f4e	0.08749257
30	0x3ccf6080	0.02531457
31	0x3dceb45b	0.10092994
32	0xbda486a0	-0.0803349
33	0xbc84d67a	-0.016215552
34	0xbd1cace5	-0.038250823
35	0x3e149c78	0.14512813
36	0x3d080f4b	0.03321771
37	0x3da4f2eb	0.080541454
38	0x3e192281	0.14954568
39	0xbd196f1e	-0.037459485
40	0x3e68f04a	0.22747913
41	0xbcd76671	-0.026293965
42	0xbd99d600	-0.075115204
43	0xbd5efada	-0.05443845
44	0x3d141685	0.03615429
45	0x3d7df4b1	0.062000934
46	0x3d5d62b0	0.054049194
47	0xbd380789	-0.04492906
48	0xbcf41436	-0.029794794
49	0xbc694102	-0.0142366905
50	0x3e0b1211	0.1358111
51	0x3d6b4078	0.05743453
52	0x3b91c22b	0.0044481955
53	0x3d6fed25	0.058575768
54	0x3dfca577	0.123362474
55	0xbd279b0b	-0.040919345
56	0x3d6bf582	0.05760718
57	0x3e0c44c7	0.13698111
58	0x3e935644	0.28776753
59	0xbcdb3fbc	-0.02676379
60	0x3e165190	0.14679551
61	0x3d6021b6	0.05471965
62	0xbd38e729	-0.045142327
63	0xbdb85816	-0.09001176

hidden2.weight f4 [32, 64]
0	0xbc3fee1a	-0.011714483
1	0x3d15444c	0.036442086
2	0xbd5accc8	-0.05341795
3	0x3c3a1bab	0.011359136
4	0xbe00a972	-0.12564638
5	0xbdd62ac8	-0.104573786
6	0x3da16f08	0.07882506
7	0x3dc97acc	0.09837875
8	0x3e2370dc	0.15961021
9	0x3e222509	0.1583444
10	0x3db40b42	0.0879121
11	0x3ea75ae1	0.32686523
12	0xbc49fa7e	-0.012327788
13	0x3e3a906b	0.18219154
14	0x3e88a797	0.2669036
15	0x3c694bca	0.014239261
16	0xbd9e41c4	-0.077273875
17	0xbe243989	-0.16037573
18	0xbdcce1ba	-0.100039914
19	0x3e833325	0.25624958
20	0xbe0ace01	-0.13555147
21	0x3dc98b36	0.098410055
22	0xbdf2231f	-0.11823105
23	0x3edba81a	0.4290169
24	0xbd450fa4	-0.04811062
25	0x3e44b7b1	0.19210698
26	0xbd9dc899	-0.077042766
27	0x3dfa78dc	0.12230083
28	0x3e0d409a	0.13794175
29	0xbd501f4e	-0.050811104
30	0xbd0d6c22	-0.03452695
31	0x3df3b919	0.11900539
32	0x3e0da8e6	0.13833961
33	0x3e128a2f	0.14310525
34	0xbd827e75	-0.06371776
35	0x3cbebdf4	0.023283936
36	0xbdda7b96	-0.106681034
37	0x3db8ad93	0.09017482
38	0x3cf81935	0.030285457
39	0xbcd38626	-0.025820803
40	0x3e068e94	0.13140327
41	0x3d9d5f1e	0.07684158
42	0xbc9c3f96	-0.019073289
43	0x3b8f428b	0.004371946
44	0xbacfcfba	-0.0015854754
45	0x3d33ac33	0.043865394
46	0x3e23bf7a	0.15991011
47	0xbd9019ed	-0.07036195
48	0x3d0466a2	0.03232444
49	0xbdfeadf4	-0.12435523
50	0x3dc2cc46	0.09511618
51	0x3d813ffa	0.06311031
52	0xbc3dbdd7	-0.011580906
53	0xbe4e6746	-0.20156583
54	0xbd965611	-0.073406346
55	0xbe957f98	-0.2919891
56	0xbcfe9424	-0.031076498
57	0x3ea8c44c	0.32962263
58	0x3eaf73b7	0.3426797
59	0x3e5766fc	0.21035379
60	0x3e693d57	0.22777306
61	0x3d1f4c8a	0.038891353
62	0x3d36a582	0.044591434
63	0x3da81c61	0.08208538
64	0x36ba61a6	5.5545997e-06
65	0x3e0f5739	0.13998117
66	0xbdb904d4	-0.09034124
67	0xbc89ac2c	-0.01680573
68	0x3cbb9b0c	0.02290108
69	0x3df8c5ee	0.12147127
70	0x3df13432	0.117775336
71	0x3cfdba9d	0.030972773
72	0xbd477599	-0.048696134
73	0xbde30288	-0.11084467
74	0xbdd4434c	-0.10364398
75	0x3d00fb22	0.0314895
76	0x3dd53944	0.10411313
77	0x3d0dd0aa	0.034622826
78	0x3d8b6f83	0.068083785
79	0x3cbf55c0	0.023356318
80	0x3dad0e88	0.08450037
81	0x3d4fb210	0.050706923
82	0xbcec7c37	-0.028867824
83	0xba62a84f	-0.0008646296
84	0xbda85185	-0.082186736
85	0xbdfee6bd	-0.124463536
86	0xbdc49edb	-0.09600612
87	0xbdf2804b	-0.11840876
88	0x3dae7c92	0.08519854
89	0x3c4395a3	0.011937532
90	0x3da53489	0.08066661
91	0xbdce986a	-0.100876644
92	0x3d2bcdba	0.041944243
93	0x3d8f5a60	0.069996595
94	0x3dc65eb0	0.09686029
95	0xbd325973	-0.043542337
96	0x3cefe4a0	0.029283822
97	0xbcb2869f	-0.021792708
98	0xb9628b38	-0.00021604903
99	0x3c97efda	0.018546987
100	0x3ca577cd	0.020198727
101	0xbdc92654	-0.09821764
102	0x3df7b684	0.12095359
103	0x3df6df05	0.12054256
104	0xbdfa51c3	-0.12222626
105	0x3da2b09f	0.07943844
106	0x3d66103f	0.056167837
107	0xbdd8ea31	-0.105915435
108	0xbc8b5ddf	-0.017012535
109	0xbdac93cb	-0.08426627
110	0xbd91065d	-0.07081292
111	0xbcd54320	-0.026032984
112	0xbd076829	-0.03305832
113	0x3de5adc1	0.112147816
114	0xbd8741f6	-0.06604378
115	0x3dd8c8e0	0.10585189
116	0xbcab5876	-0.020916205
117	0xbdefcac0	-0.11708593
118	0xbdaedc92	-0.08538164
119	0xbcdd078a	-0.026981134
120	0xbc931183	-0.017952686
121	0xbdbf1ea7	-0.09332018
122	0xbe1454cd	-0.14485474
123	0xbdf3c7b7	-0.11903327
124	0x3d9dfd63	0.07714345
125	0xbd3c5d02	-0.045987137
126	0xbc917b3e	-0.017758962
127	0xbd796bf2	-0.06089396
128	0xbd96ed32	-0.0736946
129	0x3dbd97ed	0.09257493
130	0x3cca2df4	0.024680115
131	0xbd93ef00	-0.0722332
132	0x3e1c98cb	0.15292661
133	0xbdbc1d61	-0.09185291
134	0x3e0823fb	0.13294975
135	0x3d8a5502	0.06754495
136	0xbd6d27ce	-0.05789929
137	0xbcf9304a	-0.030418534
138	0x3cc586a8	0.02411206
139	0x3cf74fb9	0.030189382
140	0x3d8aac22	0.06771113
141	0xbd42fbb9	-0.047603343
142	0xbe253c14	-0.16136199
143	0xbba603db	-0.0050663776
144	0xbd0fd268	-0.03511277
145	0x3cf60318	0.030030772
146	0x3e8791ab	0.26478323
147	0xbdde3866	-0.10850601
148	0x3e2c95f4	0.16854078
149	0x3d7fc8be	0.062447302
150	0xbd6b1e24	-0.05740179
151	0xbe198c7e	-0.14995
152	0x3ca4a224	0.020096846
153	0x3da1e71b	0.07905408
154	0x3dc8a914	0.09797874
155	0xbd86b69a	-0.06577797
156	0x3dba6dc5	0.09102968
157	0xbdc5d006	-0.09658818
158	0xbdd191ff	-0.10232925
159	0xbd561fb0	-0.052276313
160	0x3e0cbda5	0.13744219
161	0x3e59fea8	0.2128855
162	0xbdf8be16	-0.12145631
163	0xbe30d51f	-0.17268799
164	0xbda9ea89	-0.08296687
165	0x3d7eb40a	0.062183417
166	0xbd72757f	-0.059194084
167	0x3cca6905	0.02470828
168	0xbdfe7f85	-0.12426666
169	0x3da61cf1	0.08110989
170	0x3d9e56d5	0.07731406
171	0x3d4d9985	0.050195236
172	0x3b1f2b90	0.002428744
173	0xbc6748c9	-0.014116474
174	0x3d7e59a0	0.06209719
175	0x3d3756fb	0.044760685
176	0xbc6cc119	-0.014450335
177	0x3e7a02d0	0.24415135
178	0x3b6a7c7d	0.0035779767
179	0xbdc9b9d2	-0.098498955
180	0x3bf96437	0.0076108235
181	0x3e5ac33f	0.21363543
182	0xbd04765a	-0.03233943
183	0x3e2cc023	0.1687017
184	0x3db1ab81	0.0867529
185	0xbc374b1e	-0.011187343
186	0xbd73a305	-0.05948164
187	0xbdc467e5	-0.09590129
188	0x3cecc684	0.028903253
189	0x3e377559	0.17915858
190	0xbcf6fe51	-0.030150564
191	0xbd5f4a95	-0.054514486
192	0x3e21e60a	0.15810409
193	0xbe6b0d6a	-0.22954336
194	0x3db7452a	0.08948739
195	0x3e00cae0	0.1257739
196	0x3d605f71	0.05477852
197	0x3c84cd44	0.01621116
198	0xbda80e4c	-0.08205852
199	0x3e3dcb16	0.18534502
200	0x3ce08edf	0.027411876
201	0x3e6b6c24	0.22990471
202	0xbd1f070e	-0.038825087
203	0x3ec33832	0.3812881
204	0x3e7a5975	0.24448188
205	0x3c2b9ad1	0.010473923
206	0x3f211cb8	0.62934446
207	0xbe9b0013	-0.30273494
208	0x3d0e9597	0.03481063
209	0xbea60d85	-0.3243219
210	0x3daf2fc2	0.08554031
211	0x3ec5f031	0.38659814
212	0xbe72a3d9	-0.23695315
213	0xbdd7608a	-0.1051646
214	0xbec2ab2e	-0.38021225
215	0x3efc4fec	0.49279726
216	0x3d8183ce	0.06323968
217	0x3eaf4ea4	0.34239686
218	0xbe2caccd	-0.16862793
219	0x3e9545d7	0.29154846
220	0x3e88e0b7	0.26733944
221	0x3d4634fc	0.048390374
222	0x3c9a91e6	0.018868398
223	0x3ed4a65c	0.41533172
224	0xbe670077	-0.22558771
225	0x3e0704a6	0.13185367
226	0xbc9b862a	-0.018984873
227	0x3ec56a66	0.38557738
228	0x3de98a50	0.11403334
229	0xbd11b5f7	-0.035573926
230	0x3e6f3eb8	0.23363769
231	0x3d28dd38	0.041226596
232	0x3ed0bd0b	0.40769228
233	0x3e09f247	0.13471328
234	0x3cbd2ad6	0.023091715
235	0xbdc93c16	-0.098259136
236	0xbc8d7cbc	-0.017271392
237	0x3d88242e	0.06647526
238	0x3e2a67ba	0.16641131
239	0xbee74cdc	-0.45175827
240	0x3e31b847	0.17355452
241	0xbd6437b4	-0.055717185
242	0xbe1867b5	-0.14883311
243	0xbe0d83d1	-0.13819815
244	0x3d9bab6c	0.076010555
245	0x3cadcad4	0.02121488
246	0xbd93c6ef	-0.07215678
247	0xbed3ee30	-0.4139266
248	0xbe0d0fe5	-0.13775595
249	0x3f0d708a	0.55249846
250	0x3f020722	0.50792134
251	0x3f14ff1e	0.5820178
252	0x3ec6d469	0.3883393
253	0xbe45a6f3	-0.19301967
254	0xbd34d56d	-0.04414885
255	0xbbe4b525	-0.006979602

hidden2.bias f4 [32]
0	0x3c93bef9	0.018035399
1	0xbe04c55d	-0.12965913
2	0xbd9c93c1	-0.07645369
3	0x3dc93921	0.098253496
4	0x3d03324d	0.032030392
5	0x3d0d9ae5	0.034571547
6	0x3e3aca36	0.182412
7	0x3a53da9a	0.00080815854
8	0x3d682bd9	0.05668244
9	0x3d3d44c9	0.046208177
10	0x3de739a9	0.11290295
11	0x3d31dc81	0.04342318
12	0x3de767fe	0.11299132
13	0xbd851517	-0.06498163
14	0x3d65b84e	0.05608397
15	0xbddaa8f2	-0.10676755
16	0xbdfd8738	-0.123793066
17	0x3de81d36	0.113336965
18	0x3d5ee696	0.054419123
19	0x3e44f7e3	0.19235186
20	0x3d89b3a2	0.06723715
21	0x3dbac0dc	0.09118816
22	0x3dece08c	0.115662664
23	0x3db542e1	0.08850647
24	0x3e2e9307	0.17048274
25	0x3d7cebda	0.061748363
26	0xba68379c	-0.0008858384
27	0x3cd3a4cb	0.025835415
28	0x3e052314	0.13001662
29	0xbb25e456	-0.00253131
30	0x3cb6d722	0.02231938
31	0x3bc24539	0.005928662

hidden3.weight f4 [32, 32]
0	0x3e413b44	0.18870264
1	0x3cebe17f	0.028794048
2	0xbca2b20d	-0.019860292
3	0x3da8f9a0	0.08250737
4	0x3e842bd1	0.2581468
5	0x3e9dc949	0.3081763
6	0xbeb1e5c1	-0.347456
7	0x3e3fffd3	0.18749933
8	0xbe10ae2a	-0.14128938
9	0xbcade413	-0.021226918
10	0x3e718ba6	0.23588428
11	0xbe80ae41	-0.25132945
12	0x3d99a2e3	0.07501771
13	0x3d7e8a90	0.062143862
14	0xbe86c473	-0.26321754
15	0x3e01b7ee	0.1266782
16	0x3e00bc26	0.12571773
17	0xbc9a1264	-0.018807597
18	0xbdcc9eaa	-0.099912
19	0xbdbddfde	-0.09271215
20	0x3e62b1d2	0.22138146
21	0x3dec9a01	0.115528114
22	0xbe6529f0	-0.22379279
23	0x3d6e74c6	0.058216833
24	0xbeaa45e6	-0.33256453
25	0x3e03520c	0.12824267
26	0x3cbd2d89	0.023093002
27	0xbe976737	-0.29570934
28	0xbe3ae0c0	-0.18249798
29	0x3bad051a	0.005280149
30	0x3e140483	0.14454846
31	0x3de26684	0.110547096
32	0x3eb7f447	0.35928556
33	0x3da11629	0.07865555
34	0xbcd924ee	-0.026506867
35	0x3e182fe8	0.14862025
36	0xbdb84080	-0.089966774
37	0xbe8bd760	-0.27312756
38	0x3e8d7bb1	0.27633432
39	0xbe652ea2	-0.2238107
40	0xbe450ffb	-0.19244377
41	0x3e9c3109	0.3050616
42	0xbe072bd5	-0.13200314
43	0x3d0ee46c	0.03488581
44	0xbd2d72ab	-0.042345684
45	0xbda2bfc0	-0.0794673
46	0xbcfa1ef2	-0.030532334
47	0xbd7cab6b	-0.061686914
48	0xbd8aef69	-0.06783945
49	0x3dc3c802	0.09559633
50	0xbe849b76	-0.25899857
51	0xbd982a9a	-0.074300006
52	0xbdfc6351	-0.123236306
53	0xba95c668	-0.0011426928
54	0x3e4023bf	0.18763636
55	0xbe3f640a	-0.18690506
56	0x3e1b903f	0.15191744
57	0xbe2bcb56	-0.16776785
58	0xbd62dc48	-0.055385858
59	0xbd449367	-0.047992136
60	0xbe318994	-0.17337638
61	0x3d3fd2ad	0.046831775
62	0x3d8af653	0.06785264
63	0x3e8b4588	0.27201486
64	0x3e8844f2	0.266151
65	0x3bae3ca4	0.0053172875
66	0xbe9175a7	-0.28410074
67	0x3ed1430a	0.4087146
68	0xbe1c547a	-0.152666
69	0xbd8c5197	-0.068514995
70	0xbe1cd96b	-0.15317313
71	0x3e40e25b	0.18836348
72	0xbeafad0e	-0.34311718
73	0xbe361e6b	-0.17785041
74	0x3e66a8c2	0.22525313
75	0xbe94eba9	-0.29086044
76	0xbe849333	-0.25893554
77	0xbe4aef2e	-0.19817802
78	0xbdfd086d	-0.12355123
79	0x3d9fc75c	0.07801697
80	0xbe09ff01	-0.13476183
81	0xbd86c8ea	-0.0658129
82	0x3d05bf62	0.03265322
83	0xbd58a335	-0.05289002
84	0x3e5980b7	0.21240507
85	0xbe07bb0e	-0.1325495
86	0xbd2159e0	-0.039392352
87	0xbc0c29bc	-0.008554872
88	0x3bec0b2e	0.007203481
89	0x3d869c82	0.0657282
90	0xbe2fc0a9	-0.17163338
91	0x3e303092	0.17206028
92	0x3e61b6b6	0.22042355
93	0xb8e59964	-0.00010948142
94	0x3e08682d	0.1332099
95	0x3b08b052	0.0020857048
96	0xbe99ef94	-0.30065596
97	0x3d0f721f	0.035020944
98	0x3e339117	0.17535816
99	0xbe942935	-0.28937688
100	0x3e49c192	0.19702747
101	0x3d314181	0.04327536
102	0xbe2a4c02	-0.16630557
103	0x3e9a4bf6	0.3013608
104	0x3e53bbc5	0.20677097
105	0x3d791c8e	0.060818247
106	0xbccae2ef	-0.024766413
107	0x3e8e6c46	0.2781698
108	0x3de9dcae	0.114190444
109	0x3e7b41d1	0.24536826
110	0x3d930d3f	0.07180261
111	0x3d28bb57	0.041194286
112	0x3da9f27c	0.08298203
113	0xbe2dba49	-0.16965593
114	0x3e07d30b	0.132641
115	0xbda1d3f4	-0.07901755
116	0x3d42207a	0.047394253
117	0x3e3eaa7a	0.18619719
118	0xbe6ede49	-0.23326983
119	0xbd42e32c	-0.04757993
120	0xbeb42ff6	-0.3519284
121	0xbc3f4b54	-0.0116756745
122	0xbd95b348	-0.07309586
123	0x3e2ba4f5	0.16762145
124	0x3d2cddc6	0.042203687
125	0x3e17a636	0.14809498
126	0xbcc886d0	-0.024478346
127	0x3e2d9e5d	0.16954942
128	0xbe75850d	-0.23976536
129	0x3df95de7	0.121761136
130	0x3d3e8bed	0.046520162
131	0xbdbd0b48	-0.09230667
132	0xbdb2768b	-0.087140165
133	0xbe54c7cc	-0.20779341
134	0x3f024d90	0.508996
135	0xbcc3f3b6	-0.023919921
136	0xbdf27b92	-0.118399754
137	0x3d089ca9	0.033352528
138	0xbdc1a701	-0.094556816
139	0xbe6bc609	-0.23024763
140	0x3d3f1fd5	0.046661217
141	0xbe3328e6	-0.1749607
142	0x3edc7d4a	0.43064338
143	0xbddbae74	-0.10726634
144	0x3d2f7e25	0.04284491
145	0x3e118c42	0.1421366
146	0xbe3d5870	-0.18490767
147	0x3dede96d	0.11616788
148	0x3e11cc0f	0.14237998
149	0xbcba02a1	-0.022706332
150	0xbe0e0b99	-0.13871612
151	0x3e30bc32	0.17259291
152	0x3ef61816	0.4806525
153	0xbe27f86e	-0.16403362
154	0xbe87244f	-0.2639489
155	0x3ea4eeff	0.3221359
156	0x3eac641d	0.3367013
157	0x3ccecb28	0.025243357
158	0x3e2751f7	0.16339861
159	0xbe078ced	-0.13237353
160	0xbe8fbaba	-0.2807215
161	0x3e358d8b	0.17729776
162	0x3db887fa	0.090103105
163	0xbecb2cba	-0.3968256
164	0x3e892a51	0.26790097
165	0xbc297c51	-0.010344581
166	0x3e4bb769	0.19894184
167	0xbdfbda32	-0.12297477
168	0x3ee277f2	0.44232136
169	0x3e76a999	0.24088134
170	0xbe7d3874	-0.24728566
171	0x3ae762da	0.0017653361
172	0x3e97da92	0.29658943
173	0x3e6c5f0d	0.23083134
174	0xbd666c17	-0.056255426
175	0x3d3a0c64	0.045421973
176	0x3df30087	0.11865335
177	0x3de2816c	0.110598415
178	0xbe21356e	-0.15743038
179	0x3dd6b753	0.10484185
180	0xbe840b9a	-0.257901
181	0x3d782d38	0.06059
182	0x3cc90bcc	0.024541758
183	0xbd065983	-0.03280021
184	0x3dc9071a	0.09815808
185	0x3c8ba74e	0.01704755
186	0xbd3aec74	-0.045635656
187	0x3c7f9674	0.015599836
188	0xbd5a0b50	-0.053233445
189	0x3d6c4216	0.057680212
190	0xbe099dd5	-0.13439114
191	0x3e203f5a	0.15649167
192	0x3dd7bc88	0.10534006
193	0xbe284cd7	-0.16435562
194	0x3de67d05	0.11254314
195	0x3e15a1d0	0.14612508
196	0x3d956f0d	0.07296572
197	0x3e8f2017	0.2795417
198	0xbe0a03fe	-0.13478085
199	0xbc4caf2c	-0.012492936
200	0x3ea248d9	0.31696203
201	0x3e3d65f7	0.18495928
202	0xbdab33ef	-0.08359515
203	0x3db9c95c	0.090716094
204	0x3e7fe2a4	0.249888
205	0x3e74976f	0.23885892
206	0xbd934b97	-0.07192152
207	0x3d28c1b4	0.041200355
208	0xbe2c57cd	-0.16830368
209	0xbe03830f	-0.12842964
210	0xbe386ac1	-0.18009473
211	0xbd4abb0b	-0.049494784
212	0xbcc744be	-0.024324771
213	0xbe1fee92	-0.15618351
214	0xbb880901	-0.004151464
215	0x3dde011f	0.108400576
216	0x3d6cbef9	0.057799313
217	0xbd27be05	-0.0409527
218	0xbd92bd58	-0.07165021
219	0xbe99e505	-0.3005754
220	0xbed010b0	-0.40637732
221	0x3c8609ee	0.016362157
222	0x3dbd715f	0.092501394
223	0xbe6ff836	-0.23434529
224	0x3e69f29f	0.22846459
225	0x3d3819a9	0.044946346
226	0x3dba3ce1	0.09093643
227	0xbbadcabc	-0.005303709
228	0x3e546074	0.20739919
229	0x3ebcb5eb	0.36857542
230	0xbe9f7774	-0.31145823
231	0xbd5fac8e	-0.05460792
232	0x3e591b64	0.21201855
233	0xbdc303b0	-0.09522188
234	0xbdf65a72	-0.1202897
235	0x3d33106c	0.043716833
236	0xbc84533d	-0.016152972
237	0xbd5b6f84	-0.053573146
238	0xbe1bf91e	-0.1523175
239	0x3e1dc7d3	0.15408258
240	0xbe7b9b87	-0.24571048
241	0xbe3ad6b8	-0.18245971
242	0x3d9e6a9d	0.077351786
243	0xbe28e6e2	-0.16494325
244	0x3e114cf8	0.14189517
245	0xbdc021d0	-0.09381449
246	0x3dff207d	0.124573685
247	0x3d48984e	0.048973374
248	0xbd276ff5	-0.040878255
249	0x3e294d06	0.16533288
250	0x3e3b75c7	0.18306647
251	0xbe5fbca3	-0.21849303
252	0xbe646d43	-0.22307305
253	0xbe312370	-0.17298675
254	0xbe0ace14	-0.13555175
255	0x3da2b944	0.07945493

hidden3.bias f4 [32]
0	0xbe284a1b	-0.16434519
1	0xbc3d55c2	-0.011556091
2	0x3d001299	0.031267736
3	0xbd6d6ec8	-0.057966977
4	0xbcfeacb7	-0.031088216
5	0x3d56d11f	0.052445527
6	0xbde989f6	-0.11403267
7	0xbd287971	-0.04113144
8	0xbdf9cbca	-0.12197073
9	0x3dd831e2	0.105563894
10	0x3dd6480e	0.10462962
11	0x3d0ce74f	0.03440028
12	0x3de78ee0	0.11306548
13	0xbe035719	-0.12826194
14	0x3d2f2086	0.042755626
15	0x3dc9ca75	0.09853069
16	0xbe02c537	-0.12770544
17	0x3ded96e7	0.11601048
18	0xbe0b8cfa	-0.13627997
19	0x3df5af62	0.11996342
20	0x3d2e60f9	0.04257295
21	0xbdcda0bb	-0.100404225
22	0xbcdce011	-0.026962312
23	0xbe015a8b	-0.12632196
24	0xbd9a9935	-0.07548753
25	0xbd1c6604	-0.038183227
26	0x3ce6d4ba	0.028177608
27	0xbcdc28e5	-0.026874969
28	0x3c936d94	0.017996587
29	0x3e3c65b1	0.18398167
30	0xbd735fd9	-0.05941758
31	0xbd9fc2ea	-0.07800849

output.weight f4 [10, 32]
0	0x3e7aed84	0.24504668
1	0xbef9eb38	-0.4881227
2	0xbf2aa875	-0.66663295
3	0x3f13806e	0.57617843
4	0xbf156ffb	-0.58373994
5	0x3edc6941	0.43049052
6	0x3ea7e53c	0.3279208
7	0x3d8cb93b	0.068712674
8	0x3e9d32fd	0.30702963
9	0xbecf6822	-0.40509135
10	0xbe8b4d8d	-0.27207604
11	0x3e8a2095	0.26977983
12	0x3f39d84f	0.72595686
13	0x3e25d088	0.1619283
14	0x3e4bc1d6	0.19898161
15	0xbf5db20c	-0.865998
16	0xbd888fba	-0.06668039
17	0x3dc6479c	0.09681627
18	0xbdd0ef84	-0.10201934
19	0x3ee16e08	0.4402926
20	0x3daa6f0e	0.08321963
21	0x3d4f8c2f	0.0506708
22	0xbe1e4f7b	-0.15460007
23	0xbf2d5fe2	-0.6772443
24	0xbee8a884	-0.45441067
25	0x3e940e75	0.2891728
26	0xbd230bf5	-0.039806325
27	0x3e8c1319	0.2735832
28	0x3e7ac127	0.24487744
29	0xbe708fdc	-0.23492378
30	0xbe9b866b	-0.3037599
31	0x3ea2fefa	0.31835157
32	0x3e92eaee	0.28694862
33	0xbdfa5883	-0.122239135
34	0xbef023d3	-0.46902332
35	0x3ebb3f4c	0.3657173
36	0xbf394622	-0.7237264
37	0x3f11cd03	0.5695345
38	0x3ef9edb0	0.48814154
39	0x3f3241bf	0.6963157
40	0x3f1a8eae	0.6037396
41	0xbf12f658	-0.5740714
42	0xbecb0204	-0.39649975
43	0x3ec128f1	0.37726548
44	0xbfa4db2d	-1.2879387
45	0x3e0a7925	0.13522775
46	0x3e44cb2e	0.19218132
47	0xbf6ec24c	-0.93265224
48	0xbea6e67d	-0.32597724
49	0x3f4a5dd2	0.7904941
50	0xbe1e8f95	-0.1548446
51	0xbf88a66d	-1.0675789
52	0x3e9a562d	0.30143872
53	0xbec2b5d0	-0.38029337
54	0x3fb3da91	1.4051076
55	0xbee05173	-0.4381214
56	0x3f4e394d	0.80556184
57	0xbf5033d9	-0.81329113
58	0xbd9dc802	-0.07704164
59	0x3e70dc02	0.23521426
60	0x3ed579a6	0.41694373
61	0xbec01b46	-0.37520808
62	0xbe650a2a	-0.22367159
63	0x3e77760e	0.24166128
64	0x3eda79e5	0.42671123
65	0x3e0c30a8	0.13690436
66	0x3f419abc	0.7562673
67	0xbf24bfae	-0.6435498
68	0xbf1ba4d3	-0.60798377
69	0xbf22b7c9	-0.63561684
70	0x3e71963d	0.23592468
71	0x3ee1fb54	0.4413706
72	0x3f0609e2	0.5235883
73	0xbe9ea4b5	-0.30985036
74	0xbdee4aee	-0.116353855
75	0x3d8f792b	0.07005533
76	0x3f06203f	0.52392954
77	0xbf31f374	-0.69512105
78	0x3d0326a7	0.032019284
79	0x3eae0ac3	0.33992586
80	0xbe94aea5	-0.29039493
81	0x3ecf787a	0.40521604
82	0xbea82d35	-0.3284699
83	0x3ecb7876	0.39740342
84	0xbddc21ef	-0.1074866
85	0xbe789bf3	-0.2427824
86	0xbf018341	-0.505909
87	0x3ec298b3	0.38007125
88	0xbe669842	-0.22519019
89	0x3eb37257	0.35048172
90	0xbe7572c8	-0.23969567
91	0x3d35fc29	0.04442993
92	0x3dfb9a98	0.12285346
93	0xbf0b2fd8	-0.5436988
94	0xbeee4fe8	-0.4654534
95	0x3e401a19	0.18759955
96	0xbeec4c10	-0.4615178
97	0xbe422e9c	-0.18963093
98	0xbf275112	-0.6535808
99	0x3f06066f	0.52353567
100	0x3f513271	0.8171759
101	0x3f0af231	0.54275805
102	0x3ebfdaf1	0.37471727
103	0xbe3d131a	-0.18464318
104	0x3e45de42	0.19323066
105	0xbee5522f	-0.44789264
106	0xbee37161	-0.4442244
107	0x3ec4dd88	0.38450265
108	0xbebd798a	-0.3700679
109	0x3ea36736	0.3191468
110	0x3ea501df	0.3222799
111	0x3dc2644e	0.09491788
112	0x3de25762	0.11051823
113	0xbe734b58	-0.2375921
114	0xbe76a064	-0.24084622
115	0xbc4c0cc4	-0.012454215
116	0x3e2f4299	0.17115249
117	0xbdf7ef7b	-0.12106224
118	0x3e0fb0c1	0.1403227
119	0xbf1a97cd	-0.6038788
120	0x3edd884e	0.43268055
121	0xbf15f6b3	-0.5857956
122	0xbecd7b75	-0.40133253
123	0x3db77c2d	0.089592315
124	0x3e8ee06a	0.2790559
125	0xbe5bdc48	-0.2147075
126	0xbefac3a4	-0.48977387
127	0x3ed7335c	0.42031372
128	0xbce93af0	-0.028470486
129	0x3f2fa553	0.6861164
130	0x3dcfcb15	0.10146157
131	0xbee6f50f	-0.4510884
132	0xbdd8f6c4	-0.10593942
133	0xbed3a606	-0.41337603
134	0x3ef3f346	0.4764654
135	0x3e974297	0.29542992
136	0xbe059cea	-0.13048139
137	0xbe744345	-0.23853786
138	0xbf09873d	-0.5372198
139	0x3e8230d9	0.25427893
140	0x3efe7b7e	0.49703592
141	0xbe4196f9	-0.18905248
142	0x3e61aac2	0.22037795
143	0x3ed3cb5d	0.4136609
144	0xbeef72fa	-0.46767408
145	0xbeceef68	-0.40417027
146	0xbeb7eaac	-0.35921228
147	0x3ebd4edc	0.36974227
148	0x3e2894be	0.1646299
149	0x3d060605	0.032720584
150	0xbefca738	-0.49346328
151	0x3e73dce2	0.23814729
152	0xbea1f0d8	-0.31629062
153	0x3ea1f140	0.31629372
154	0xbe748dba	-0.2388219
155	0x3e4b3316	0.19843706
156	0x3e3d7a58	0.18503702
157	0xbee083d2	-0.4385057
158	0xbe745e9e	-0.23864219
159	0x3e899af2	0.26876026
160	0x3e079566	0.13240585
161	0xbe80ed92	-0.25181252
162	0x3e81b68b	0.25334582
163	0x3ecc2ff1	0.39880326
164	0x3e8d790d	0.27631417
165	0xbef22c17	-0.47299263
166	0xbf125192	-0.57155716
167	0xbeaa7afd	-0.33296958
168	0xbee7224a	-0.45143348
169	0x3f26ca0d	0.65152055
170	0x3f0a7e6a	0.5409914
171	0xbdb0e78e	-0.086379156
172	0xbf2ae518	-0.6675582
173	0xbeab1fc6	-0.3342268
174	0xbed84f23	-0.42247877
175	0x3ed01fe9	0.40649346
176	0x3f23c0a2	0.6396581
177	0x3f078fd6	0.5295385
178	0x3e7586d5	0.23977216
179	0xbd564c7d	-0.05231904
180	0x3ee6c603	0.45072946
181	0xbf1c8e80	-0.6115494
182	0x3e1b5ebc	0.15172857
183	0x3bf00976	0.0073253466
184	0xbe485c48	-0.19566453
185	0x3e8d04c8	0.2754271
186	0xbe468348	-0.19386017
187	0xbee69d3d	-0.45041838
188	0xbf01bc1b	-0.5067765
189	0x3ee19bd7	0.4406421
190	0x3f3c959d	0.7366579
191	0xbf1a3b88	-0.6024709
192	0x3edf2602	0.43583685
193	0xbe5af285	-0.21381576
194	0x3e265aae	0.16245529
195	0xbe085835	-0.13314898
196	0x3e79ad04	0.24382406
197	0xbe8c1c97	-0.27365562
198	0x3e92eb93	0.28695354
199	0x3dfdd3d0	0.12393916
200	0x3db17a74	0.08665934
201	0xbe7a46a5	-0.24441011
202	0xbe5ecd9e	-0.21758124
203	0x3e49e74b	0.19717138
204	0x3f106e14	0.56417966
205	0xbea85721	-0.32878974
206	0x3e01f913	0.1269267
207	0x3e6f8a7e	0.23392674
208	0xbeddf1ca	-0.43348533
209	0x3dae18eb	0.085008465
210	0xbecd0983	-0.4004632
211	0x3eda4c71	0.42636445
212	0xbd92a578	-0.07160467
213	0xbe4e0087	-0.20117389
214	0xbe6cfab9	-0.23142518
215	0xbdd7eb13	-0.10542884
216	0xbe7afcaf	-0.24510454
217	0x3e7121cd	0.2354805
218	0xbe81c275	-0.2534367
219	0x3ecdbd7c	0.40183628
220	0x3ee11761	0.4396315
221	0xbeb85130	-0.3599944
222	0xbe6b65dd	-0.22988077
223	0x3e1c20d7	0.15246902
224	0xbe656cb6	-0.22404751
225	0xbc8b6c74	-0.017019488
226	0x3e97cdc8	0.29649186
227	0x3f1247ce	0.57140815
228	0x3db03708	0.086042464
229	0x3eae96a9	0.3409932
230	0xbecea7f9	-0.40362528
231	0xbea6dfce	-0.32592624
232	0xbe53c366	-0.20680007
233	0x3e8b4084	0.2719766
234	0x3eb70b1b	0.3575066
235	0xbf1d809b	-0.6152436
236	0xbf0585e1	-0.5215741
237	0x3ecb3a54	0.39692938
238	0xbf23b5b3	-0.63949126
239	0x3d372204	0.044710174
240	0x3ec05731	0.37566522
241	0x3f10cf11	0.5656596
242	0x3ed97b77	0.4247701
243	0xbf71281c	-0.9420183
244	0xbed2f57d	-0.41202918
245	0x3f5822bf	0.8442802
246	0x3f5fe6b0	0.87461376
247	0x3ecf4bbe	0.40487474
248	0x3f464251	0.7744494
249	0xbf15a784	-0.58458734
250	0xbe353174	-0.17694646
251	0xbf0a4eb6	-0.54026353
252	0xbf611f42	-0.8793832
253	0x3f000a6d	0.5001591
254	0x3f1de956	0.6168417
255	0xbf5e9f31	-0.86961657

output.bias f4 [10]
0	0x3daa10fb	0.0830402
1	0xbd52bb53	-0.051448178
2	0xbe4c0d18	-0.1992687
3	0x3e18824e	0.14893457
4	0xbe60abf4	-0.21940595
5	0x3e5a3053	0.21307497
6	0xbb37c384	-0.002804012
7	0xbe1a4c64	-0.15068203
8	0x3d3e95d1	0.046529595
9	0xbc10ecc4	-0.008845512
